practice/best_model.pt (torch, 360559 bytes, 6 tensors)

fc1.weight f4 [100, 784]
000000 93 c2 e0 bc 61 e9 08 3d 90 08 50 bb e2 12 12 bd
       -0.02743653 0.033425692 -0.0031743385 -0.03566254
000010 40 ac 6a 3a a4 fa 7c 3c 80 a6 fa b9 d5 16 0d 3d
       0.0008952059 0.015440617 -0.00047807768 0.034445602
000020 6e c9 97 bc 90 11 c0 3c 88 7b d5 3c 3d 7d 10 bd
       -0.018528666 0.023445874 0.02605988 -0.035275687
000030 9c b7 09 bd 16 3d 7c bc 4a 48 9e bc de 02 d4 3c
       -0.03362237 -0.015395423 -0.01932158 0.025880273
000040 fc c6 7e 3c 40 29 66 3a 80 b6 1f 3a f0 20 00 bd
       0.015550371 0.00087799504 0.0006092563 -0.03128141
000050 d1 4d ee bc 23 38 87 bc 78 06 ae bb a3 58 ac bc
       -0.02908984 -0.01650626 -0.0053108297 -0.021038359
000060 aa 51 e0 3c 50 83 1b 3c 83 97 ac bc 7e 8a dc 3c
       0.02738269 0.009491757 -0.02106834 0.026921507
000070 4f bb 03 3d 78 dd c4 3c d5 c1 b0 bc 90 c0 fc 3b
       0.032161053 0.024031386 -0.021576801 0.007713385
000080 64 be 2c 3c e8 a7 f9 3c 72 4d 25 bc 94 08 21 bc
       0.01054344 0.030475572 -0.010089265 -0.009828705
000090 2b 2c 32 3c c9 54 9d bc 95 9c 17 3d 49 3b 8d bc
       0.010874788 -0.019205468 0.037014563 -0.017240183
0000a0 32 01 03 bc e1 b3 54 bc a6 f4 eb bc f1 6d 0f 3d
       -0.00799589 -0.01298234 -0.02880318 0.035016958
0000b0 86 09 25 bc e5 c2 90 3c ab a8 41 3b ac d0 f1 bc
       -0.010073071 0.017671058 0.0029549997 -0.029518448
0000c0 53 fa fd bc a3 1d ed bc 4d ea fe bc 13 8b 99 3c
       -0.031003153 -0.028944796 -0.031117583 0.018743074
0000d0 83 61 d7 bc 55 86 00 3d a3 80 b9 bc 60 c8 a6 ba
       -0.026291614 0.03137811 -0.022644347 -0.0012724511
0000e0 70 5d e2 3b 18 d8 6c bc 6e f2 50 bc 78 70 90 ba
       0.0069081113 -0.014455818 -0.012753112 -0.0011019846
0000f0 c8 6b b6 3c 8a 0c d8 3c 93 28 02 3c 7f d9 1d 3d
       0.022268191 0.026373167 0.007944244 0.0385375
000100 c6 d9 17 bc 5d 32 74 bc 02 30 01 3d ea 63 c7 3c
       -0.00926823 -0.014904586 0.031539924 0.024339635
000110 82 91 79 3c ec 65 e8 3c 83 cf ee 3c 6c 61 0a 3d
       0.015232446 0.028368913 0.029151684 0.033784315
000120 e5 81 10 3d dd 83 8d bb 06 65 9b bc ea 65 ad 3b
       0.035280127 -0.004318698 -0.01896907 0.00529169
000130 9e f9 93 3c 10 20 fa ba fa cf b6 bc 34 6c ba bc
       0.018063363 -0.0019083042 -0.022315968 -0.022756673
000140 f4 ff 14 bc 67 35 bc bc 8c 98 f0 bc 27 e9 a0 bc
       -0.009094227 -0.022974683 -0.029369615 -0.019642426
000150 40 f1 8b 3a 7c b6 c4 3c 55 6b 53 3c 0c af f6 3c
       0.0010676757 0.024012797 0.012904008 0.030112766
000160 56 6a 8b bc f8 48 9a bc ad ad 46 bc b4 79 8c 3b
       -0.017018478 -0.018833622 -0.0121263685 0.004286969
000170 77 8d 24 bc 23 72 44 bc 9e 57 f6 3b 4c 1e 78 3c
       -0.0100434935 -0.011990103 0.007517769 0.015143942
000180 c1 31 c9 3c 39 78 48 3d 71 2e 99 3d 0d 8e a4 3b
       0.024559857 0.04894278 0.07479561 0.0050218166
000190 04 9b 8c 3d 76 0e 3a 3b 63 71 4b 3c 0c 0e 32 3c
       0.068655044 0.0028389967 0.01241717 0.010867607
0001a0 27 26 13 3d a4 99 0d 3c 9c 47 a0 3c cc 1e 3f bb
       0.035925057 0.008642588 0.019565396 -0.0029162643
0001b0 ac 42 10 3d 55 2d 07 bd 64 bf 00 bc f6 ba e5 3c
       0.035219833 -0.033002216 -0.007858131 0.028043251
0001c0 98 26 be 3c f0 86 df 3c 57 d3 37 3c 57 f5 47 3b
       0.023211762 0.027286023 0.011219821 0.0030511224
0001d0 dc 0a 90 bb 8d 3f 1d bc 15 4b 1c 3c 07 38 9d bc
       -0.004395826 -0.009597671 0.009539385 -0.019191755
0001e0 ad f7 36 3d 15 55 11 3d 56 9c 10 3d ea 7e 86 3d
       0.044669796 0.03548153 0.035305344 0.06567176
0001f0 eb 99 ed 3c 5a 19 53 3d 88 07 d3 3c b0 95 b0 3c
       0.029004058 0.05153785 0.025760427 0.021555752
000200 eb 53 c9 3c 0c 56 b7 3b e0 43 a6 3c 70 33 4e 3d
       0.024576148 0.0055949744 0.020296037 0.050342023
000210 3c a8 e6 3c 8c c5 a9 3c 4c 8f 02 bd ec d9 26 3c
       0.028156392 0.02072408 -0.03187494 0.010183793
000220 09 be 0f bc 21 b2 f7 ba f5 b8 ee 3c 89 6f 6e 3c
       -0.008773335 -0.0018897691 0.029140929 0.014552959
000230 b8 ff 0e bc 82 8a f1 3c 74 b7 f5 bc 57 10 91 3b
       -0.00872796 0.029484991 -0.029994704 0.0044269967
000240 8a 56 d9 ba 6c 66 0c bc 19 a4 1a bd 80 2c 95 bc
       -0.0016581577 -0.008569341 -0.037754152 -0.018209696
000250 f1 bc 36 3b 03 0f cf 3b 03 d0 bd 3c 24 6c 2c bd
       0.0027883614 0.006318928 0.023170477 -0.04209532
000260 15 f5 bc bd e1 e1 9c bd 12 1c 23 bd 7a ad 2f bd
       -0.09226433 -0.076602705 -0.03982169 -0.04289005
000270 32 e5 c8 bc c2 ba 0c bc ba d2 41 3d 46 ca 9c 3d
       -0.024523351 -0.008589448 0.047320105 0.07655768
000280 f8 4b 29 3d ee d1 eb bb 08 ed cb bc ea f6 10 bc
       0.041332215 -0.0071966564 -0.024893299 -0.008847931
000290 2f 7d bd bc 3b 6c 97 bc d5 7d 6d 3c b7 6e 05 3d
       -0.023130981 -0.018484225 0.014495333 0.03257629
0002a0 a8 c4 b1 3b cb f7 eb 3c a2 98 5f bc 3c 2a f6 b8
       0.0054250546 0.02880468 -0.01364723 -0.00011738061
0002b0 4a 37 e7 3c 5a 26 d0 3c 25 97 e2 3a 3e 3c bf bc
       0.028224606 0.025408912 0.0017287476 -0.023344155
0002c0 66 b1 3a bc 75 95 3f bd a3 75 c4 bd 57 31 da bd
       -0.011394834 -0.046773393 -0.0959275 -0.10653942
0002d0 50 7d e3 bd 9c 95 b3 bd f3 5a a1 bd c1 d8 9d bd
       -0.11107886 -0.0876877 -0.07878675 -0.07707358
0002e0 a3 04 94 bd 12 f1 3f bd 68 60 82 3c e3 ae ef bc
       -0.07227447 -0.046860762 0.01591511 -0.029258197
0002f0 f6 d3 ed 3c ab 0e 15 3b 32 9f c5 3b 57 d4 4a bd
       0.029031735 0.0022744338 0.0060309405 -0.04951891
000300 73 23 f7 bc 93 13 e6 bc 97 bb f7 3c 75 cc c5 3b
       -0.03016827 -0.028085506 0.030240817 0.006036336
000310 9a 00 e0 bb 8d da e8 bc 2d bd 4b 3c b8 0a 89 bc
       -0.006836009 -0.028424526 0.01243524 -0.016728744
000320 1f 06 0a 3d c7 e2 ef bc f1 0f 51 bd f4 84 00 bd
       0.033697244 -0.02928294 -0.051040594 -0.031376794
000330 8c fa 7c bd 27 ce d0 bd 7e e0 cd bd 6c c7 f1 bd
       -0.061762378 -0.101955704 -0.10052584 -0.11805615
000340 5a 6a a6 bd b6 a1 88 bd 6a 05 c3 bb 9c a1 73 bd
       -0.08125754 -0.06671469 -0.005951573 -0.059480295
000350 04 7a 00 bd 36 44 0e 3d 5e 05 3b 3d 6e 01 06 3d
       -0.031366363 0.03473302 0.045659415 0.032716207
000360 3a 84 18 3d 2d 91 25 3b f9 f1 d2 3c d7 b8 0c 3c
       0.037235476 0.0025263533 0.025750147 0.008588991
000370 13 b3 14 bd c7 a7 4c bb 23 22 b5 bc c7 5d 82 3c
       -0.03630359 -0.0031227933 -0.022111004 0.015913857
000380 51 0a cb ba 1f cc 84 3c ba 76 ff bc b3 03 aa 3c
       -0.0015490745 0.016210614 -0.031184543 0.020753717
000390 55 a2 ad bc 7a 50 d4 bc 7d c8 11 bd 9b 05 62 bd
       -0.02119557 -0.02591728 -0.03559159 -0.055181127
0003a0 0f 7e 5b bd 7e 20 00 be 77 8b 68 bd eb ce 4d bd
       -0.053587016 -0.12512395 -0.05677363 -0.05024616
0003b0 59 88 8f bc c9 78 14 3d 85 44 1f 3d 2b a9 45 3d
       -0.01752107 0.036248002 0.038883705 0.048257034
0003c0 b8 7f 8f 3d 92 15 8f 3d 0d 8d 75 bb 54 85 82 3d
       0.07006782 0.06986536 -0.0037468106 0.063730866
0003d0 77 14 0c 3d 6a 52 10 3c 39 69 a2 3c 29 96 dc bc
       0.034199204 0.008808712 0.019825565 -0.02692707
0003e0 12 f8 a0 ba 68 23 c0 bb 2a 17 0f bd df 4e db bc
       -0.0012280962 -0.0058635958 -0.0349342 -0.026771007
0003f0 0f d7 8d bb 4d e0 99 bc 0a 5e a6 bc 24 04 b8 3c
       -0.0043286155 -0.018783713 -0.020308513 0.022462912

fc1.bias f4 [100]
000000 be 6c 03 3c 91 08 bd 3d a4 a0 22 bc 31 82 9a 3d
       0.008021532 0.092301495 -0.009925995 0.07544363
000010 16 e6 2f bd 11 ce 22 3e 3f 4c 0e 3d 93 53 84 3d
       -0.042944036 0.1589892 0.034740683 0.06461253
000020 9c 71 c3 3d 0f 5f 55 b9 86 eb 6e bd 14 ca 81 bc
       0.09543154 -0.00020348675 -0.05833008 -0.015843429
000030 43 ff d7 3d 75 90 1f bd bb bb 59 3d f0 71 70 bc
       0.10546734 -0.038956124 0.05315755 -0.014675602
000040 6e 06 30 3d 02 47 de 3d e4 d5 8e 3c dd 99 5a bd
       0.04297488 0.108533874 0.017435975 -0.05336939
000050 06 36 b4 3d 20 66 78 3d c5 ba 29 bd 44 a2 ca bc
       0.08799367 0.06064427 -0.041437883 -0.024735577
000060 06 93 46 bc 07 e4 8f 3d a6 23 7b 3c ba 3a ce bc
       -0.012120014 0.07025915 0.0153283235 -0.025174487
000070 de 30 dc 3b a8 08 0f 3e a7 f6 85 ba 7e 1d 0b bd
       0.0067196926 0.13968146 -0.0010220603 -0.033963673
000080 4f a8 c6 3d 01 f6 0b bd 8b 87 5e 3d 4a ef 3b 3d
       0.09700071 -0.034170154 0.054328483 0.0458825
000090 f1 67 b0 bc 80 68 93 bd a6 8d bc bd c2 0a fc 3d
       -0.021533938 -0.07197666 -0.09206705 0.123067394
0000a0 66 81 07 3e ab 2b 0b 3e 14 ae 16 3e f7 5c 20 bd
       0.13232955 0.13590877 0.14714843 -0.03915116
0000b0 f1 38 b4 ba c2 b0 13 3e a9 4e 9d 3b 41 0e ff 3d
       -0.001374988 0.14422897 0.004800637 0.124538906
0000c0 af 90 2b be 8d a6 88 bd b9 b2 e7 3c 08 27 5f 3d
       -0.16754411 -0.06672392 0.028283464 0.054480582
0000d0 8e e6 02 bd d6 1b a0 3d 49 97 6a 3d f1 93 d1 3c
       -0.031958155 0.07817809 0.057273183 0.02558324
0000e0 cd 74 ac 3d 9a b8 60 bc 1f 36 e8 bc 19 49 0c 3d
       0.084207155 -0.013715887 -0.02834612 0.0342494
0000f0 31 de 00 be e0 7b 96 3c 50 57 19 3e 8b 5f d8 3a
       -0.1258476 0.018369615 0.14974713 0.0016507966
000100 55 be be 3c d8 78 da 3c b7 71 c1 3b 15 19 90 3d
       0.023284117 0.02666895 0.0059034484 0.07036034
000110 8f a5 e4 3c 60 5d af bd 15 74 d5 3d 96 02 80 bd
       0.027910976 -0.08562732 0.104225315 -0.06250493
000120 1b 69 32 3e b3 de 15 3d d3 22 3f bc 1c cd 61 3d
       0.17422907 0.036589336 -0.011666018 0.05512725
000130 96 29 ad bc 5d 2d 96 3d 33 28 4a 3d 9e de a0 3d
       -0.021137994 0.07332871 0.049354743 0.07854961
000140 95 03 ac 3d 84 a4 08 3d c3 9b a3 bc d0 4a 93 bc
       0.08399121 0.03336002 -0.019971734 -0.01798001
000150 f7 4c 7a bd cf d5 74 3d dc 4e 58 bc 14 0b 7e 3d
       -0.061108556 0.059774216 -0.013202395 0.062022284
000160 ac c0 81 bc fc 5e 88 3c 3d 0d c5 bc 54 6e 4c 3d
       -0.015838943 0.016646855 -0.024054164 0.049909905
000170 56 4a 2e bd e1 75 89 3d 48 9f b0 3b 5c 83 8e bd
       -0.04255136 0.06711937 0.0053900816 -0.069586486
000180 9a b2 5e bd dc e2 1e 3c ba 4a 13 3d 23 f8 a1 3d
       -0.054369546 0.009697642 0.035959937 0.079086564

fc2.weight f4 [100, 100]
000000 24 22 56 3e 2f 44 0f 3d 09 01 33 3d 20 f3 26 bd
       0.20911461 0.034977134 0.04370216 -0.040759206
000010 c9 40 b8 bc 74 79 d5 3d 9a 5f 47 3d 93 64 c3 bd
       -0.02249183 0.10423556 0.048675157 -0.095406674
000020 86 97 95 bd 10 17 b6 3d 34 16 24 be 9b ee 4b bd
       -0.073042914 0.088911176 -0.16024095 -0.0497881
000030 09 b2 90 bc 95 1a 31 3d f0 72 54 bd 29 43 93 3c
       -0.017663019 0.04323824 -0.051867425 0.01797636
000040 09 38 f8 bd 9c 2f d2 3d 0f d0 07 3d 19 2f a1 3d
       -0.12120063 0.10262987 0.033157405 0.07870311
000050 83 34 07 be fc f5 a8 3d 1a 86 3d bc 20 e0 c8 3d
       -0.13203625 0.08250043 -0.011567617 0.098083735
000060 fa f2 66 3d e0 92 8a bd c3 c9 e5 3d 95 cc 99 3d
       0.056384064 -0.067662954 0.112201236 0.07509724
000070 0a 2b 65 3b 91 3b 28 be 10 25 9c bd 57 c4 b8 bd
       0.003496828 -0.16428973 -0.076242566 -0.09021824
000080 21 eb 50 3d 00 20 14 3d 2f 1b f7 bc 4d 57 94 3c
       0.051005486 0.03616333 -0.03016433 0.018108035
000090 72 ac 8c bd 37 af e7 bc c0 3b 88 bd 7b a6 30 3c
       -0.06868829 -0.028281791 -0.066520214 0.01078188
0000a0 2a 7d 63 3e 2c 46 8b 3d 88 94 ca 3d 08 13 8c bd
       0.22215715 0.068004936 0.09891611 -0.068395674
0000b0 87 42 e7 bd c8 a1 ed bc bb 9e ed 3d ac 9e 1a 3d
       -0.11291986 -0.029007807 0.11602541 0.037748978
0000c0 4a 13 40 3e 64 d7 5c bd a7 c8 7d bd 86 36 2a be
       0.18757358 -0.05391635 -0.061958935 -0.16622362
0000d0 1f a4 e1 3c 47 d7 af bd a3 6d ab bd 04 26 7d bd
       0.02754408 -0.08585983 -0.08370521 -0.061803833
0000e0 a9 31 79 bd a1 83 65 bd 2b e8 52 3d 95 62 15 bd
       -0.060838375 -0.056033734 0.051490944 -0.03647097
0000f0 28 a3 27 be 25 24 24 3e 56 2e 9b 3d ed c4 89 bd
       -0.16370833 0.16029413 0.07577197 -0.06727014
000100 87 f8 19 3c aa 05 7b 3d 32 75 ae bc 83 11 e5 3d
       0.009397632 0.0612847 -0.021296117 0.11184981
000110 47 a1 50 3d 33 44 8b bd 2e 65 e8 3d b4 9f 14 3e
       0.050935056 -0.06800117 0.113474235 0.14514047
000120 cd ca 56 bd 5d 4a da 3d 20 1e 8b bd c7 f9 d7 bd
       -0.0524395 0.10658715 -0.06792855 -0.10545688
000130 a5 81 a3 3d 04 c8 13 3e 97 02 5e be ee 43 0b 3b
       0.07983712 0.14431769 -0.21680675 0.0021250206
000140 a6 3c d4 3d 9e d1 a1 3d 38 4c 8d bd 80 13 dd 3d
       0.1036313 0.079013094 -0.06899303 0.10794735
000150 af 7c c5 bc 26 28 40 3d 27 d6 28 3e df 5b 3c bd
       -0.024107305 0.04691329 0.16487943 -0.045986053
000160 74 69 9a bb 47 aa 5c 3d 32 20 4d bd 94 76 05 3e
       -0.004712278 0.053873327 -0.050079532 0.13033515
000170 c6 22 80 bb 95 b3 c8 bc 54 af 06 3e f5 d4 c6 3c
       -0.0039103953 -0.024499694 0.1315282 0.024271468
000180 0c 2f 26 bc db 8b 4a bd d5 94 6d bd 6d 0e f2 bc
       -0.010143053 -0.049449783 -0.058003265 -0.029547894
000190 fb 36 36 3d 61 0e 80 bd dc 17 60 bd ba 19 98 bb
       0.044486027 -0.062527426 -0.054710254 -0.0046417387
0001a0 ec a0 9e 3d 29 6f 50 3d b5 da 08 bd 8d d0 44 bd
       0.07745537 0.05088726 -0.0334117 -0.048050452
0001b0 98 d2 c4 bd 73 84 ca 3d d3 f2 b6 bd 5b ab a3 bd
       -0.0961048 0.09888544 -0.08933034 -0.07991668
0001c0 43 b0 22 bc 69 0d 5a 3b db d3 32 3c 5a 3f 9f bc
       -0.009929719 0.0033272153 0.010914768 -0.019439388
0001d0 d1 a5 2e bd f1 c3 1c 3d d2 6e 89 3d 4f b0 c4 3d
       -0.042638604 0.0382728 0.067105904 0.09603941
0001e0 06 44 16 bc 6c f3 11 bd 82 23 aa 3d 03 47 3b bd
       -0.0091714915 -0.035632536 0.08307554 -0.04572202
0001f0 08 3b f6 bc d4 5a a4 bd 3d e3 9c 3d 7a 83 74 bd
       -0.030057445 -0.080251366 0.0766053 -0.0596957
000200 4a de 90 3c ed 32 a6 3b b8 19 e7 3b 5a 0a 49 3d
       0.01768412 0.005071989 0.0070526265 0.049082138
000210 ea f5 b6 3c ed 18 72 bd 62 ca 57 3d 16 fc c1 bd
       0.022334058 -0.059105802 0.05268324 -0.0947191
000220 20 50 35 3d 5c f9 c8 bc 1e a3 a3 bd c6 ce bd bd
       0.044265866 -0.024532966 -0.079900965 -0.092679545
000230 74 52 59 3c 85 fe 67 3d 09 7a 3c bd 43 e4 92 3c
       0.013264287 0.056639213 -0.04601482 0.01793111
000240 79 10 a1 bc db 77 16 3c ae cc 2d bd 4d 1f 13 3d
       -0.019661175 0.009183849 -0.042431526 0.035918523
000250 23 8b 24 3d 18 8d f2 bb f5 4d a6 bb 1f 89 68 bd
       0.040171754 -0.0074020736 -0.005075211 -0.056771394
000260 b8 b6 27 bc 4d 8e b3 bd 14 52 1a bd 16 12 a7 3c
       -0.010236435 -0.08767376 -0.037675932 0.020394366
000270 b5 13 ad 3d 47 2c c0 bc 90 f9 85 bd 2b fb 9f bd
       0.084510244 -0.023458613 -0.06541741 -0.07811578
000280 15 c6 48 3d 93 9b 1e 3d da 07 fb 3c 6d ec 0a bc
       0.04901703 0.038722586 0.030643392 -0.00847922
000290 b7 43 b7 bd 8d 95 ad 3d 81 aa 81 bc a3 da 0e 3d
       -0.089484625 0.0847579 -0.015828373 0.034876477
0002a0 39 0b 91 3d 81 9c 1d 3d ca 7d 4a bd 27 9b 48 bd
       0.07082219 0.038479332 -0.049436368 -0.04897609
0002b0 d3 e7 92 bd 55 d3 8d bd 78 97 3c bb c6 b9 90 3d
       -0.07173123 -0.06925074 -0.0028776806 0.070666835
0002c0 cc 45 6e bd f1 f3 9e 3d 85 7d c3 bd b3 14 44 bd
       -0.058172032 0.07761372 -0.09545425 -0.047871303
0002d0 0e 75 75 bd 65 c7 01 3d 34 fa 09 3d 1b ea 40 3d
       -0.059926085 0.031684298 0.033685878 0.04709826
0002e0 84 e9 c6 bd 03 2c 2c bd 03 40 82 3d 6b 1a f1 bc
       -0.09712508 -0.04203416 0.063598655 -0.029431542
0002f0 cf c4 cd bd 43 e9 d1 bc 0c 0b 62 bd b0 1f 88 3d
       -0.10047304 -0.025623923 -0.055186316 0.06646669
000300 16 9a 24 3d 99 ad 4f bc 2d fe bd 3d 2e cc 02 bd
       0.04018601 -0.012675666 0.09276996 -0.031933002
000310 08 9f 55 3d d3 64 6a 3d a6 49 aa 3c 92 4d c9 bc
       0.052153617 0.05722506 0.020787071 -0.024573121
000320 9e 3d e1 bd b7 44 6a bd 3a 2b a2 bd cb 86 ed 3d
       -0.10998081 -0.057194438 -0.07918401 0.11597975
000330 71 7e 0f 3e 60 70 87 3d 89 f1 54 bd c7 0a 2a 3c
       0.14013077 0.06613231 -0.05198816 0.010378546
000340 24 9b d2 bd f4 97 00 3d d7 e1 27 3e 43 7f cf 3b
       -0.10283497 0.031394914 0.16394745 0.0063323095
000350 c9 4c 7e bd 45 82 19 be 52 c6 fd 3c 1f 04 a4 3d
       -0.062084947 -0.149911 0.030978356 0.080085985
000360 bc d8 ad bd ae e6 00 3d 17 71 62 3d c8 0b 02 be
       -0.084886044 0.031469993 0.055283632 -0.12699807
000370 aa f3 22 3e ce 94 be 3d 1e 3d 9c 3d e4 73 4f 3d
       0.15913263 0.09305726 0.07628845 0.05064763
000380 9f c6 0d be 64 03 84 bd 84 34 6f bd ee 1a e7 3b
       -0.13845299 -0.06445959 -0.058399692 0.007052771
000390 a6 61 5d 3b 38 4a 4c 3e 59 c3 e1 3c 4f d1 a2 3d
       0.0033780127 0.19950187 0.02755897 0.07950079
0003a0 84 d6 3a bc c9 3e 17 3e 62 c4 e8 bd 16 f0 90 3d
       -0.011403684 0.14770044 -0.11365582 0.07077043
0003b0 d3 cb d8 bd ca 5d 91 bd 4b 43 07 bd 6b 44 7f 3d
       -0.105857514 -0.07097967 -0.03302316 0.062321108
0003c0 d3 62 8b bd 83 f8 86 3c 26 dd 1a 3e dc 28 13 bd
       -0.068059586 0.016475921 0.15123424 -0.03592764
0003d0 92 03 b7 3c ad 60 c3 3d dc e3 82 bd df bb 3d 3b
       0.02234057 0.09539924 -0.06391117 0.0028951091
0003e0 d9 8b 05 3e f3 a2 04 be 62 75 82 bb 54 c6 36 bc
       0.13041629 -0.12952785 -0.0039812783 -0.011155684
0003f0 ca c0 cd 3c 0a 85 e8 bd 53 65 dd bd 58 70 19 3c
       0.025116343 -0.113535 -0.10810342 0.009365164

fc2.bias f4 [100]
000000 5c 78 c5 bc 2d d8 53 3c fc ee a9 3d 58 b4 a2 bb
       -0.024105243 0.012929958 0.08297536 -0.0049653463
000010 ce 0c 48 3d 03 79 ef bd d2 d6 1b bc c1 85 2f 3e
       0.048840337 -0.11693003 -0.009511666 0.17140867
000020 d1 c8 b0 3d 9e 50 4f bd d4 da 92 3d 09 34 77 bb
       0.08632053 -0.050613992 0.071706444 -0.0037720224
000030 4d f0 35 3e 42 89 00 3d ab c5 01 3d 58 80 c2 bd
       0.17767449 0.0313809 0.03168265 -0.09497136
000040 89 86 2d 3e 4a 35 2c 3e 05 b9 18 3e 93 e0 51 bd
       0.16945852 0.16817203 0.1491433 -0.05123956
000050 91 f8 86 bd ad 3d c6 3d ad 3a 79 bd 89 a8 86 3d
       -0.06590379 0.096797325 -0.060846973 0.06575114
000060 5d fc 95 3d 45 29 ba 3c 02 02 8b 3a b2 e8 a6 3d
       0.07323525 0.022724757 0.0010605457 0.08149852
000070 8a c7 48 bd 52 0d ca 3d 9b 40 a1 3c 63 d6 87 bd
       -0.04901842 0.09865822 0.019684127 -0.06632688
000080 22 24 a3 bd 96 4d 46 bc 67 f6 b5 3c a3 96 67 bd
       -0.07965876 -0.012103459 0.02221222 -0.056540143
000090 4a a2 46 3e 50 4d 5c bd f7 2f b7 3d 60 62 35 bb
       0.19397846 -0.05378467 0.089446954 -0.0027677044
0000a0 52 6d 20 bc 39 1f 07 bd 34 5f 82 3d bd 4a 90 3d
       -0.009791689 -0.03298876 0.06365815 0.07045505
0000b0 cf 93 17 bd d8 47 32 3e 6b 47 42 3e 6f 58 a6 3d
       -0.037006196 0.17410219 0.18972556 0.08122336
0000c0 d4 e5 08 3e 35 81 ca bd 04 48 8e 3c b9 ca c1 3d
       0.13368922 -0.098879255 0.017368324 0.094624944
0000d0 ad 25 86 bd 41 f4 e6 bc f1 2f 10 bd f0 83 04 3d
       -0.06550155 -0.028192641 -0.03520197 0.032352388
0000e0 fa 17 4b 3e ac ba 0b 3e 1a 04 50 bd a4 82 93 3d
       0.19833365 0.13645428 -0.05078516 0.07202652
0000f0 6e fc de 3d b9 ae 57 3e f5 51 16 3e 1e ad 34 ba
       0.10887991 0.21062745 0.14679702 -0.00068922515
000100 bf 8a 84 bd 28 f6 ae 3d 4f 53 9e 3d 07 d4 7f 3d
       -0.06471776 0.08543044 0.077307336 0.062458064
000110 68 5f 9f bd 93 bd 51 3d 86 33 28 3d d1 2d 25 3e
       -0.07781869 0.051206183 0.04106476 0.16130759
000120 f0 ec 77 3d 0f fa cd 3b b2 0c d6 3d be 11 e2 3b
       0.060528696 0.006285913 0.1045164 0.0068990877
000130 28 03 ad bd b1 76 50 3e da bf 26 bd 1f 9f 93 bc
       -0.08447868 0.20357777 -0.040710308 -0.01802021
000140 80 f1 1a 3e 63 b3 39 bd 91 81 1f bb 9e 73 93 bd
       0.15131187 -0.045337092 -0.0024338702 -0.071997866
000150 08 fa 9a 3d 59 a3 3e 3d f7 eb 09 3e f4 2c 8c 3d
       0.07567221 0.0465425 0.1346892 0.06844512
000160 3b 86 f9 3c cf 6c 78 3c b1 f0 f8 3d c8 fe f1 3b
       0.030459514 0.015162661 0.12155283 0.0073851086
000170 33 22 91 3d 9f c8 86 bc af 97 ec 3d 74 82 3c 3d
       0.07086601 -0.016453085 0.11552369 0.046022847
000180 3c 15 25 3d 5e 72 79 3e 24 bd ef bd 0c 2e 75 bd
       0.040303454 0.24360034 -0.117059976 -0.059858367

fc3.weight f4 [10, 100]
000000 b7 61 df 3c f1 17 82 bd 07 89 a9 3c ee 79 0d bd
       0.027268274 -0.06352223 0.020695223 -0.03454011
000010 9f 6b ae bd 95 75 0c be 22 59 56 bd 24 fe a8 be
       -0.08516621 -0.13716729 -0.052331097 -0.33006394
000020 83 96 0d be 12 4c 74 3e 93 e4 a1 bd d4 14 65 bd
       -0.13826947 0.23857144 -0.07904925 -0.055928066
000030 1a 0a b5 3e 1b 11 ae bd 76 56 a8 3c b0 c5 51 bc
       0.3535927 -0.08499356 0.02054904 -0.01280348
000040 1f bc 6e 3d 2a f2 70 be 16 f8 36 be 5f 9e 0b 3c
       0.058284875 -0.23529878 -0.17868075 0.008521645
000050 05 58 c2 bd b3 19 cc 3d bb 8f aa 3e c5 81 e0 be
       -0.09489445 0.09965839 0.33312783 -0.43849006
000060 27 17 b7 be 84 35 b1 3e dc cb 73 bd 18 a7 6b be
       -0.3575985 0.34611142 -0.059520587 -0.2301296
000070 e5 2b 24 be b2 a0 6c be e2 3e 63 3d a3 cf 91 3a
       -0.1603237 -0.23108175 0.05547989 0.0011124503
000080 e3 d3 6f bd 12 40 7f 3c 4f f9 7e be 08 ea fe bd
       -0.05855168 0.01557924 -0.24899791 -0.12446982
000090 d0 5f ed 3d 8f 64 2d bd 9c ba 3f be bf 59 a5 bb
       0.115905404 -0.04233223 -0.1872353 -0.005046099
0000a0 d1 24 2d bd f1 c4 18 3d 2f af f0 bd 40 cb 16 3e
       -0.04227144 0.037297193 -0.117521636 0.14725971
0000b0 d3 96 ca be 04 b8 a5 be 9f db b2 be be 3a 03 3f
       -0.39568195 -0.32366955 -0.34933183 0.5126151
0000c0 56 51 cd 3e 56 84 9a 3d 88 c9 04 3d d9 a1 b5 bc
       0.40101117 0.07544772 0.032418758 -0.022171902
0000d0 b2 b3 25 3d 5e d2 56 3d fa 87 0b 3f 6b 5c 38 3d
       0.040454574 0.052446716 0.5450436 0.04501001
0000e0 11 68 b8 be e5 d5 ef bd 1a e7 b7 3e 83 87 90 be
       -0.36016896 -0.11710719 0.35918504 -0.28228387
0000f0 ce 72 61 bd 53 33 57 be 51 4d 48 be c6 be 3b bd
       -0.055041127 -0.21015672 -0.19560744 -0.045836233
000100 78 63 9b 3d 5c 37 49 3d 98 d8 91 bd 01 bd a5 3d
       0.075873315 0.04912506 -0.0712139 0.0809269
000110 dc a0 9d 3d 00 ab 81 3e b3 58 61 be f8 63 49 3c
       0.07696697 0.25325775 -0.22006492 0.012291901
000120 01 68 a5 3e 2e c1 16 3e 8a 2e 0e be 87 68 82 be
       0.3230591 0.1472213 -0.1388494 -0.25470373
000130 c1 86 2c be 1d 85 06 be 44 ea 5f 3d 29 bc 0e be
       -0.1684828 -0.13136716 0.054666772 -0.13938965
000140 7c a8 b4 be ea 82 ef bc ab cf 63 be fb 2a 18 3e
       -0.35284793 -0.02923723 -0.22247188 0.14860146
000150 ec 90 7b 3b 77 7d 84 bc 47 18 a9 3e 4e 65 7f 3d
       0.003838594 -0.016173108 0.33026335 0.06235247
000160 a7 2a bd bd 7b d8 09 3f c5 43 2c be 59 28 c4 3d
       -0.09236651 0.5384595 -0.16822727 0.09578008
000170 de 78 2a be cb 97 cd 3e 82 a5 a3 be 48 58 8d bd
       -0.1664767 0.4015487 -0.3196221 -0.06901604
000180 18 b4 71 be 40 f3 a5 be bb d7 8b bc 94 7e ab bc
       -0.23603857 -0.32412148 -0.017070642 -0.02093438
000190 03 9d ed bd f4 a4 b5 bc f3 60 4b be 50 13 4e bd
       -0.11602213 -0.022173382 -0.19861202 -0.050311387
0001a0 f2 7f 84 3e 67 75 3b 3e 3b 34 6e 3e f1 7b 1e 3e
       0.25878865 0.18306504 0.23262112 0.15476967
0001b0 95 c8 63 be 93 33 3b 3d 7a 89 b0 bd d2 0d 2f be
       -0.22244485 0.045703482 -0.086199716 -0.17095116
0001c0 41 54 88 be b2 f5 94 3d f4 05 41 3c 2b e0 1a 3d
       -0.2662678 0.07273425 0.0117812045 0.03781144
0001d0 e1 fb 7f 3d 99 b0 d3 3e ee f6 70 3e 3a fa 9a bd
       0.06249607 0.4134567 0.23531696 -0.07567258
0001e0 b1 86 0f be 30 18 83 3c 88 52 bf be 77 1f a7 3e
       -0.14016224 0.016002744 -0.37367654 0.32641193
0001f0 e4 af a6 3d cf 5f b4 be 45 40 b4 3e 68 40 c6 be
       0.08139017 -0.35229346 0.35205284 -0.38721013
000200 38 7c 69 3d 03 d0 a4 be 4d c4 c0 3c e1 92 c7 bd
       0.05700323 -0.3218995 0.023531104 -0.09744812
000210 cb 38 36 bd 48 f2 e8 3d 47 eb 45 3e da a2 cd bd
       -0.044487756 0.113743365 0.19328032 -0.10040827
000220 a3 64 0b bc 1c fb 8b 3d 22 a8 9c 3e 19 31 11 3d
       -0.00850788 0.06835005 0.30597025 0.035447214
000230 06 e5 8d bd 58 2e ca bc b0 97 e6 bd 54 a5 d1 bd
       -0.069284484 -0.024680302 -0.11259401 -0.10236612
000240 fc 8b fa 3e 6c dc c1 3e 07 a3 c0 3e 0a 79 f1 be
       0.48934925 0.3786348 0.3762438 -0.47162658
000250 ea 94 01 3d 92 e6 cb 3c ed 85 b5 be da 31 a0 3e
       0.031636156 0.024890218 -0.3545374 0.31288034
000260 f9 ed 98 bc 9b 24 f5 3c a4 0a 94 be 8a e1 63 be
       -0.018668162 0.029924681 -0.28914368 -0.22254005
000270 5c b5 05 3d 0f ef 35 3e 6c c4 80 bd aa c9 e5 3c
       0.03264366 0.17766975 -0.062874645 0.028050262
000280 c3 da fe bc be 6a d5 bc 1a 21 c4 be 5f 97 8b be
       -0.031110173 -0.026051875 -0.38306504 -0.27263924
000290 61 76 74 bc 57 2c ad 3e c7 70 4a bd 1e bf c4 3d
       -0.014920802 0.3382289 -0.04942396 0.09606765
0002a0 a8 7e 64 3c ca 36 27 be 3f e6 d7 3c dd ab 3b 3e
       0.013946213 -0.16329494 0.026354907 0.1832728
0002b0 15 64 17 be a4 da 88 3b 8f 08 9b be f3 78 28 be
       -0.14784272 0.0041764546 -0.30279967 -0.16452388
0002c0 20 5a 89 3e 56 be 0b 3e f1 96 65 bd 24 76 32 3d
       0.26826572 0.13646826 -0.056052152 0.0435697
0002d0 be f5 02 3d 6e 86 bd bd 82 1a de 3d 47 5d a5 3a
       0.03197264 -0.09254156 0.108449 0.00126163
0002e0 77 39 de 3d df ef 9b be 6e fd 76 be 42 c4 82 3e
       0.10850804 -0.30456445 -0.24120113 0.25540358
0002f0 ab b7 13 3f 3b 31 6c bd be e9 98 be e6 ef ad bd
       0.5770213 -0.057664137 -0.2986583 -0.084930226
000300 f8 15 f1 3e 59 46 a0 3d 3c 4a 06 be d7 ee b9 3e
       0.47087073 0.07825918 -0.13114256 0.36315033
000310 fc df bf 3e ae ac b6 3e 67 e1 c2 3d 83 59 96 bd
       0.37475574 0.3567862 0.09515648 -0.07341292
000320 8c 1e 96 be 43 66 d4 bc b9 2d 48 be 9a 61 ad 3c
       -0.2932018 -0.025927668 -0.19548692 0.021164704
000330 2e 82 ac 3d 97 a1 99 bc 79 b8 74 be 5f 28 ed be
       0.08423267 -0.01875381 -0.23898496 -0.46319863
000340 56 ab 80 bd b9 c7 7b bd b6 71 26 bd e6 3a fc bd
       -0.0628268 -0.061469767 -0.040635787 -0.123159215
000350 93 af 9b 3e 9c 8e 66 be e6 a3 97 bc a7 e6 01 bd
       0.3040739 -0.22515339 -0.01851077 -0.031714108
000360 a0 a8 bc bd b1 86 84 bc bd fd 83 be 45 2a c5 bc
       -0.0921185 -0.016177507 -0.25779524 -0.024068007
000370 48 b3 00 3f e8 d9 ac be 84 95 0e 3e 5a a7 73 be
       0.5027356 -0.3376 0.13924223 -0.23794308
000380 b8 54 8d be 67 31 af bd f9 e5 0f 3e 35 2f aa 3e
       -0.27603698 -0.085543446 0.14052571 0.3323914
000390 87 9c c4 3e e9 a0 ba 3e b2 80 55 3e 94 dd 2c be
       0.3840067 0.3645089 0.20849875 -0.168814
0003a0 3e 63 87 3c 7d dd a8 3d 4c ef 13 3e 1e ea 8a be
       0.016526815 0.082453705 0.14446753 -0.27131742
0003b0 71 f8 13 bf f5 c4 5a bd 4b 20 96 3d 81 b2 a7 3c
       -0.57800967 -0.05341049 0.07330378 0.02047086
0003c0 d3 4a 57 3b 3a 0c 40 bd a2 9d 4b be df e8 27 3e
       0.0032850995 -0.04688666 -0.19884351 0.16397427
0003d0 da 28 63 3e b7 96 0c 3f 3c a3 c2 3d 35 14 3e 3d
       0.22183552 0.5491747 0.09503791 0.04640599
0003e0 04 0d 66 3e 40 c8 04 be c7 7b c7 be 3f de d5 3d
       0.22465903 -0.12967014 -0.38961622 0.10442781
0003f0 42 be b5 bd fe b1 8d bd ec 03 c3 3e 14 a2 8d bc
       -0.088741794 -0.06918715 0.3808893 -0.017289199

fc3.bias f4 [10]
000000 1b 1b f0 bd 4a e7 09 3e e1 79 d7 3c f5 26 69 be
       -0.1172392 0.13467136 0.026303234 -0.22768767
000010 32 15 ad 3d 6b d0 97 3e 59 85 f3 bd 06 8f 1c 3e
       0.08451308 0.29651198 -0.118906684 0.15288934
000020 7b 3b 1f be 5a ac 4f 3d
       -0.15550034 0.050701477
