mnist/train/best_model.pt (torch, 360559 bytes, 6 tensors)

fc1.weight f4 [100, 784]
00000000: 76a1 c63c 0829 dcbb e2e6 a73c 3042 dfbb
00000010: 7059 383c 1080 0dbb c3dd 023d 0012 33bb
00000020: f83f ca3c e3dc 88bc 4ea9 35bc e0b9 083b
00000030: 04f8 ba3c e84c acbc 30a5 89bc fba0 0a3d
00000040: aef1 ab3c b2fe 34bc 3c97 00bc 20ca 84bc
00000050: 3ace c7bc d517 9fbc 62e4 ec3c db9d 10bd
00000060: 68a6 b6bc c02e 86ba 00cb 88bc 68f1 783c
00000070: 60c3 12bc 00ad 943c 2841 09bd b216 41bc
00000080: bc45 1bbc 86af bf3b bbb8 11bd 3157 973c
00000090: fd5b bcbb b8cf 963c c9ed 11bd ce95 d23c
000000a0: c164 303b f2b2 b2bc a978 cdbc 1126 023b
000000b0: 0dda 9abc 01c4 473c 6607 be3c 2384 773b
000000c0: 298d c33c ec8f 9c3b ca45 ffbc f144 443c
000000d0: e3f4 91bc e0fb 0abd 50b2 05bb b046 59bb
000000e0: 5c74 7c3c 8a0e 89bc 4e32 013d 5f81 c6bc
000000f0: a273 003d dff3 d3bc e9ca 893c db24 f1bb
00000100: 4821 033d f705 413c 5ae4 c43c 23c7 85bc
00000110: 4abd 3a3c f41a bbbc 6236 b7bb 0a55 58ba
00000120: 837b cabc c503 97bc 2318 8abc 757b d23c
00000130: 668a 3d3c 246c a83c 4798 98bc aab1 8a3c
00000140: 9207 d83c ed30 bc3c b03d 193c dcb1 843c
00000150: e017 a7bc c025 f63a b594 783c e1ea db3c
00000160: f9d2 89bc ea13 dd3c 2fb7 e13b 0552 0ebd
00000170: 9c9d 483a e01f 64bd 6f01 46bd 96a8 80bd
00000180: 93e9 6ebd c678 d2bc 6dfa f9bc ab4d 86b8
00000190: 9a6c 24bd 3259 cdbc 085a 30bb 1911 b0bc
000001a0: a366 93bc 021c f23c d77b 2abc e20a 52bc
000001b0: 13d9 babb 9c1c 0abd 9d94 a8b9 d441 0ebd
000001c0: 5c94 15bc d552 b4bc 2947 8e3c b30e 92bc
000001d0: a078 723c 2c12 f2bc 14d3 debb 07f5 5cbb
000001e0: 8492 66bd 0963 1ebd 1225 71bd bf66 d0bd
000001f0: 3f7d a1bd b928 67bd c689 76bd d101 adbc
00000200: 68e1 5bbd 6fce d7bc 1f0c e13b 7292 a5bc
00000210: a0e0 3a3c d9c6 a93c c873 1d3d 731b df3c
00000220: d6f9 223d 8b27 9fbc 8792 573c 5375 debc
00000230: 1472 a5bb 2832 683c a14a 9cbb 801a 8c3c
00000240: 87c9 78bc adee 17bd 2f32 5fbb 9a24 6dbd
00000250: 1899 22bd a1b1 dbbd 602f 42bd 197c 6abd
00000260: 3739 c13b a189 b33c 3ba6 7e3c 3e84 84bc
00000270: b4dc ccbb 45c4 ba3b 5a04 07bc ad21 533c
00000280: b44b 0a3d 8c34 bbbc 9c7c 423d de77 853d
00000290: 453c 8b3c 1f10 c13c e88f 183d c6d0 e3bb
000002a0: f993 063d 8d2a 9c3c 3997 e33c c75a cbbb
000002b0: 83c7 02bd 2e7f 59bd bc04 72bd 1576 bfbd
000002c0: 85fe 6fbd 5343 eabd 8084 bdbd 12c5 07bd
000002d0: df01 423d c740 643d 1aff aa3d 269a 5e3d
000002e0: 3030 b43c fa22 01bc dc20 f839 3e3b bbbb
000002f0: b257 1d3d 4d3c bf3c cead f03c 2bad 073d
00000300: 1684 5a3d 77d8 4e3c 57de a03c f5ce eebc
00000310: 3c35 013c 41b3 463c 74b6 c83b c5e8 8dbc
00000320: fb61 30bd fd14 26bc 25df 08bd 5cc4 4abd
00000330: 1f50 86bd fa35 c4bd d9b4 24bb d798 bb3c
00000340: 8452 603d 9640 8e3d 90e0 c23d 4f65 a23d
00000350: c0f6 6f3d 8848 883d 8339 353b e837 513b
00000360: 2820 123d 359f 483d 730f 663d 7832 3d3d
00000370: f3f5 7d3d 3ffa 8a3b f12b 1f3d 44da 853c
00000380: 8218 39bc 5108 fc3c 683d 68bc ef4a 8f3c
00000390: f372 39bd 16e6 58bd 1bca dabc fdfa afbd
000003a0: 616a a6bd a766 7bbd 7aaf 1abd ce2f 84bb
000003b0: deeb 813d 3b08 e43c 2343 873c 688c 903c
000003c0: 91f5 9e3c 841c b03c 6bd0 083b b786 adbc
000003d0: 9539 a4bc 2e5f 593c b87a 84bc 54fb 363d
000003e0: 20e7 7b3d edb1 323d 0e8c b3bc c9d6 12bd
000003f0: 5306 22bc 4bf5 d53c b8b8 fa3c 5bee 43bd
0.024246912 -0.0067187585 0.020495836 -0.00681331 0.011251792 -0.0021591224 0.03194977 -0.0027323961
0.024688706 -0.01670689 -0.011087729 0.0020862743 0.022823341 -0.021032766 -0.0168024 0.03384493
0.020989265 -0.011047052 -0.007848557 -0.016209662 -0.024390329 -0.019420544 0.028917495 -0.035306793
-0.022296146 -0.0010237321 -0.01669836 0.0151942745 -0.008957714 0.0181489 -0.033509403 -0.011785196
-0.009477075 0.0058497814 -0.035576563 0.018474193 -0.0057482705 0.018409595 -0.03562716 0.025706198
0.0026915523 -0.021813843 -0.02508195 0.0019859115 -0.018902803 0.012192727 0.023196887 0.0037767969
0.023871021 0.004777899 -0.031161208 0.011979328 -0.017816966 -0.033931613 -0.0020400472 -0.0033153705
0.015408602 -0.016730566 0.031542115 -0.02423161 0.031360276 -0.025873123 0.016820388 -0.00735913
0.03201416 0.011781207 0.024034668 -0.016330307 0.011397669 -0.02284 -0.0055911997 -0.0008252418
-0.024717098 -0.018434415 -0.016857212 0.025693635 0.011568641 0.020559378 -0.018627299 0.01693042
0.026370797 0.022972548 0.009353086 0.016198091 -0.020397127 0.0018779561 0.015172173 0.026845397
-0.016824232 0.026987035 0.0068882923 -0.03474619 0.000765288 -0.05569446 -0.04834121 -0.06282155
-0.058328222 -0.025692355 -0.03051492 -6.404085e-05 -0.040142633 -0.025066946 -0.0026909132 -0.021492528
-0.017993277 0.02955437 -0.010405502 -0.0128199775 -0.005702147 -0.03371869 -0.00032154183 -0.034730747
-0.00912961 -0.022012154 0.017367916 -0.017829275 0.014799267 -0.02954968 -0.006800065 -0.0033715384
-0.056292072 -0.038668666 -0.058873244 -0.10175847 -0.07885217 -0.05643532 -0.060189985 -0.02111903
-0.05368176 -0.026343552 0.0068679 -0.020211432 0.011406094 0.0207247 0.038440496 0.027234768
0.039789043 -0.019428035 0.013157493 -0.027155554 -0.0050489996 0.014172114 -0.0047696386 0.01710248
-0.015184767 -0.037092853 -0.0034057011 -0.057896234 -0.039696783 -0.107272394 -0.04740846 -0.057247255
0.005896713 0.021916213 0.015542562 -0.01617634 -0.006251896 0.0056996667 -0.008240784 0.012886447
0.033763602 -0.022852205 0.047482118 0.065170035 0.016996512 0.023567257 0.037246615 -0.006952378
0.03285596 0.019063259 0.02778207 -0.00620589 -0.03192855 -0.053099804 -0.059086546 -0.09348694
-0.058592338 -0.11438622 -0.09253788 -0.033146925 0.047365066 0.05572584 0.08349438 0.054346226
0.021995634 -0.007881874 0.00047326728 -0.0057138493 0.03841371 0.023344183 0.029379752 0.03312413
0.053348623 0.012624851 0.01963727 -0.02915142 0.007886227 0.012127698 0.0061252657 -0.017322907
-0.04306219 -0.01013684 -0.033415932 -0.04950367 -0.06558251 -0.09580608 -0.0025132208 0.022900028
0.054766193 0.069459125 0.09515488 0.07929479 0.05858493 0.06654459 0.0027652688 0.0031924192
0.035675198 0.048979957 0.056167077 0.04619071 0.062002134 0.0042412574 0.038860265 0.016339429
-0.011297347 0.030765684 -0.014174797 0.017491786 -0.04527564 -0.052953802 -0.0267077 -0.08592794
-0.08125759 -0.061377194 -0.037765004 -0.004034019 0.06343816 0.027835956 0.016511505 0.017645076
0.019404205 0.021497972 0.002087618 -0.021182401 -0.020046989 0.0132673215 -0.016171798 0.04467328
0.061499715 0.043626714 -0.02191737 -0.035849366 -0.009889203 0.026117941 0.030605659 -0.047834735

fc1.bias f4 [100]
00000000: b7ea 963b ad6d 00bc 9013 d43d 1074 9b3d
00000010: e77d 3b3d 28e0 9c3b 3ffd 7dbd 7e87 55be
00000020: 1220 3f3d b5d8 df3c c784 423d a89e 0b3d
00000030: a566 723d 94bd 0bbd 1e3c bebc 4170 76bb
00000040: 432c 0d3d 8f1d f4bd caba 383d d3d8 6d3e
00000050: a6f0 553b 793c 03bd 937d 2a3d 466e 253d
00000060: 1494 313c 6d5b 773d dc51 a13d b5d7 203d
00000070: 99fb 313d 98bb 3e3d a9d0 1e3d 4f50 10bd
00000080: dffb 323d ae5e 163d adc7 a8bd 5003 a83d
00000090: 5f3a dc3c 90aa 0b3e ecf3 fa3d 5f3b ab3d
000000a0: 57f7 90bc eae9 143d fc74 253a e826 9ebd
000000b0: 91db a9bc c653 8d3c 536c 6abc 5b8f b03c
000000c0: c8ae 103e 0dae b3bd c5b9 073e 791e fdbc
000000d0: 8c88 253e 5fb0 89bd efb4 31bb 015d 56bc
000000e0: acb7 2a3d 26a3 c83d cd9b 7b3b 84be 60bc
000000f0: f022 4c3d cf28 5e3c 5be5 c1bb 5323 6f3c
00000100: df3c 93bc bdae c9bd 9405 0a3e 4876 303d
00000110: 1203 7f3d fe72 d13b c641 ccbc 0ad2 ce3a
00000120: e6a1 363d 1fc5 cf3d 42cd 723c b9fd 213e
00000130: ba13 4b3d c5b4 c63c 2066 933d 62fc 883d
00000140: e4f9 483d c0c5 63bd 8afa 123d c645 083e
00000150: 26dc ba3d 1161 8f3d 1f9d 623c 0aac febc
00000160: 3625 273d 8b7d 683c a01a e1bc f5f7 c1ba
00000170: 4db2 1f3e 6896 61bc 1cfd 7c3c dfaa 26bc
00000180: e4f6 7c3d 7073 b23d a788 afbc a96f 22bc
0.004605617 -0.007838649 0.10355294 0.075904965 0.045774367 0.0047874637 -0.062009092 -0.20852467
0.046661444 0.027325014 0.047489908 0.034086853 0.05917992 -0.034116343 -0.023222025 -0.003760353
0.03446604 -0.119197 0.04510001 0.23227243 0.0032644658 -0.032040093 0.041623663 0.040388368
0.010838527 0.060389925 0.078769416 0.039268214 0.043452833 0.046565622 0.038773213 -0.03523284
0.043697234 0.036711387 -0.0824121 0.08203757 0.026883302 0.13639283 0.12253556 0.083609335
-0.017696066 0.03635589 0.00063116825 -0.077222645 -0.02073458 0.01725186 -0.014308053 0.021552732
0.14129174 -0.08773432 0.13254459 -0.03089832 0.1616537 -0.06723093 -0.0027115901 -0.013083697
0.04167907 0.09796743 0.0038392425 -0.013717297 0.049838006 0.013559534 -0.005917234 0.014595824
-0.017973362 -0.09847782 0.1347869 0.04308155 0.062258787 0.006391882 -0.024933707 0.0015779149
0.044587992 0.1014502 0.014819445 0.15819444 0.04957936 0.02425612 0.07197213 0.06688763
0.04906644 -0.05560851 0.035883464 0.13307866 0.09124021 0.07000936 0.013831406 -0.031087894
0.04080697 0.014190088 -0.027478516 -0.0014798628 0.1559536 -0.01376877 0.015441205 -0.010172575
0.06175889 0.08713424 -0.021427466 -0.009914317

fc2.weight f4 [100, 100]
00000000: 5a0e 2a3e d426 e8bd 87e1 a9bd b595 1e3e
00000010: 4362 a83d 4268 00be 95cc df3d f395 d0bd
00000020: ca71 16be 8383 adbc 0ec7 c63d 0e2a 403c
00000030: 8011 913d 13f8 333d b78a 00be 74c4 e5bc
00000040: ee07 ae3d 5ac8 c6bd 15e3 8b3d 445a e9ba
00000050: dcea f83d 77a1 9bbd 3cc0 e73b 878b 1c3e
00000060: 5dbc b1bd f0c9 c83d cf9b 9bbd 255b 4dbc
00000070: 3da1 5e3b c5ea bbbd 7e89 e9bd d9a9 ddb9
00000080: 3bbb cb3b c72e 773c 0b85 d23d 3778 a03b
00000090: 0f0b de3d b126 413e 7f8d a2bc a174 ab3d
000000a0: f65f 6c3d 530d bd3d 3d30 d93b 17d7 943c
000000b0: 82f6 b93d e9b5 d03d aa59 6c3c e055 383d
000000c0: f66f d7bc 2c82 bf3d 12f2 ff3c e1c6 f7bd
000000d0: c302 24bd d064 03be d7e1 a8bd 4fd3 bf3d
000000e0: e768 713c 3d9b 273e 0c01 b0bd aee8 c0bc
000000f0: f18a d8bc fa20 89bd 5aca 7b3d 76ac 1a3d
00000100: 0df3 90bd b6de 2abd 2e29 9cbb 862c 2ebc
00000110: 03a7 a23d 9b26 db3d 5b8d 14bd cdcc 0ebe
00000120: cdd1 4a3e 1872 c23d e24c a53d 4461 1ebe
00000130: b5c8 3d3c c047 81bd 0f20 55bd d2cd 9ebc
00000140: af7f 00bd e7df 123d 1d05 88bd bcaa 16bc
00000150: 2a39 9bbd 81cd a03d fcd7 c83d 8c57 91bd
00000160: d712 a3bd 7181 323d 766e 3bbd f139 17bd
00000170: f33f 7f3d f4fc a1bd c9ba 9a3c 6d66 63be
00000180: d53f 8ebd 8063 213e b372 92bd 31e3 a43d
00000190: 20dd b9bd 1d9f ccbd c06e 04bc 68ef b7bc
000001a0: a0fd a33c 3b66 a4bd 0040 2dba 3680 563d
000001b0: 420a 423d 0451 04bd 9510 a3bd 4cdb d7bc
000001c0: 14f0 bbbc 4053 37bb 5010 483c 376d 23bd
000001d0: c242 1a3d 4b76 a8bd 4380 903d 93f8 a1bd
000001e0: fafa 02bd 83f3 5abd 3dc0 66bd 9063 0abd
000001f0: 25da b3bd 13a1 943d 6056 7bbd 7e67 253d
00000200: 69a3 a83d a698 2e3d 0ced f03c 4007 4fbb
00000210: ab23 923d 3b71 993d 6dd0 a63d c319 63bd
00000220: 9370 34bd 9886 3b3c 02ef c2bd 604e 95bd
00000230: d2f9 6d3d 0188 c63d 7092 2ebd 90a8 69bd
00000240: d8c9 413c b60c 353d 50ba 7ebc d97d a73d
00000250: 8006 14bd c0a6 cd3a 2d16 20bd 60d6 c7bc
00000260: 0018 fb38 8b02 ccbd 8e42 453d 06e0 12bd
00000270: 82fc 0f3d bda7 68bd a8d4 8f3c 60d5 293b
00000280: 4961 c23d 8aab 5d3d 6a24 8abd b07f c5bd
00000290: 24dc da3c 8527 83bd 9a27 88bd 50ee c13b
000002a0: 6648 103d 207d f0bb f77e 73bd 00c4 c63b
000002b0: 780c 99bd f08b 7ebc 38e1 a0bd 579c 31bd
000002c0: eaa1 c7bd 55df 893d b4c2 fcbc 468a a9bd
000002d0: b4e8 08bd d03c f73b 7e66 563d 80ac 42bd
000002e0: 2170 9a3d 8022 a1bd d497 dfbc 7516 9abd
000002f0: d032 7bbc 1c20 0ebd f082 38bc 75c5 aabd
00000300: 0503 c8bd 6888 15bc a652 07bd 7017 b8bd
00000310: 6810 263c 804f b93b 1a1d 523d 44c4 8cbd
00000320: 22bc b43c d841 75bd 66a9 913c ba14 06bd
00000330: 6f0d fe3c 8aa1 923b cdcc 81bd a1ee 063d
00000340: 72f1 51bd 4c20 8fbd db30 cc3d af24 18bd
00000350: 5d21 32bd 5992 92bd e42e 80bd d170 4d3d
00000360: 0e46 283d dc45 a13d 348c 17bd 42c9 82bd
00000370: b7b3 fa39 555b 773d 2f21 703a 5c31 69bd
00000380: 113a 9ebd e91d b2bd e708 5d3c e7b7 823d
00000390: 66c7 3b39 dc5b 70bc cf41 a7bd ca1b b43c
000003a0: bcee 82bc d410 853d c4a2 f5bb 79f9 d33d
000003b0: 5d8e 083b b076 b9bc 9868 cdbc 4018 a7bb
000003c0: 3e31 023e 9b80 46bd 0545 2b3d 43e3 e03d
000003d0: 5ea8 353d 4813 84bd 1474 bd3d d96b 3c3d
000003e0: 3e16 9fbc ac1c c6bc ef11 a5bd cb27 8d3d
000003f0: df5e ff3c 7278 303d 69d1 84bd 5a0a 553c
0.16607037 -0.11335531 -0.08294969 0.15486796 0.08221867 -0.12539771 0.10927693 -0.101848505
-0.14691845 -0.021180874 0.097059354 0.011728777 0.07083416 0.043937754 -0.12552916 -0.028047778
0.08497606 -0.09706183 0.06830422 -0.001780339 0.12154171 -0.07599156 0.0070724767 0.152876
-0.086785056 0.098041415 -0.075980775 -0.012533938 0.0033970617 -0.09175638 -0.11403178 -0.0004227895
0.006217388 0.015086836 0.10279282 0.004897143 0.10841953 0.18862416 -0.019842861 0.083718546
0.057708703 0.09231057 0.006628065 0.01816897 0.09080221 0.101909466 0.014425674 0.04500377
-0.026298504 0.09351 0.031243358 -0.1209848 -0.040041696 -0.12831426 -0.082462005 0.09366476
0.014734483 0.16367812 -0.0859395 -0.02354845 -0.02643344 -0.06695743 0.061472274 0.037762128
-0.07077608 -0.0417163 -0.004765651 -0.010630732 0.07942011 0.10700723 -0.03626762 -0.13945313
0.19806595 0.09494418 0.08071305 -0.15466791 0.011583497 -0.06312513 -0.052032527 -0.019385252
-0.03137177 0.03585806 -0.066416 -0.00919598 -0.075792626 0.07851697 0.09806821 -0.07096776
-0.07962578 0.043580476 -0.04575964 -0.03692049 0.062316846 -0.07909575 0.018887894 -0.22207041
-0.06945769 0.15760612 -0.071507834 0.08051146 -0.09075379 -0.09991286 -0.0080830455 -0.022453025
0.020018399 -0.080273114 -0.0006608963 0.052368365 0.047373064 -0.032303825 -0.07962147 -0.026349686
-0.022941627 -0.0027973205 0.01221092 -0.039899077 0.03766132 -0.082256876 0.07055714 -0.0790874
-0.03197763 -0.053454887 -0.056335676 -0.033786356 -0.08781842 0.07257285 -0.06136167 0.0403819
0.08234293 0.042626046 0.029409908 -0.0031590015 0.071357094 0.074923 0.08145223 -0.05544449
-0.04405267 0.011445664 -0.09518243 -0.072903395 0.058099575 0.096939094 -0.042620122 -0.05704552
0.011827908 0.044201575 -0.01554735 0.081783004 -0.03613901 0.0015689954 -0.03908365 -0.024394214
0.00011973083 -0.099614225 0.048159175 -0.035858177 0.03515292 -0.056800593 0.017557457 0.0025914535
0.09491212 0.05411867 -0.06745227 -0.09643495 0.0267163 -0.06404022 -0.066481784 0.0059183016
0.035225295 -0.007339135 -0.059447255 0.0060658455 -0.07473081 -0.015536293 -0.07855457 -0.043361988
-0.097476795 0.0673205 -0.03085456 -0.08278327 -0.033425048 0.007545091 0.052343838 -0.04752779
0.07540918 -0.078679085 -0.027294077 -0.075238146 -0.015331939 -0.03469859 -0.011261687 -0.08338443
-0.09766201 -0.00912676 -0.033037804 -0.08988845 0.0101357475 0.005655229 0.051297285 -0.06873372
0.022062365 -0.059877247 0.01778097 -0.03273461 0.031012265 0.0044748234 -0.06337891 0.032942418
-0.05125565 -0.06988582 0.09970256 -0.03714436 -0.04348885 -0.0715682 -0.06258944 0.05015642
0.041082434 0.07874653 -0.036998942 -0.06386043 0.00047817614 0.060389835 0.0009160218 -0.05693184
-0.07725919 -0.08697111 0.013490892 0.06382733 0.00017907991 -0.0146703385 -0.08166849 0.021985907
-0.015982978 0.0649735 -0.00749621 0.103503175 0.0020836808 -0.022639602 -0.025074288 -0.0050993264
0.12714097 -0.04846249 0.04181387 0.10980847 0.04435002 -0.0644899 0.09250656 0.04600129
-0.019419786 -0.024183594 -0.08060061 0.068923555 0.031173168 0.043083616 -0.06485254 0.013002956

fc2.bias f4 [100]
00000000: b962 013e 2d16 4abd 122e cfbd 6f82 373d
00000010: f733 dbbc 65fc 4a3d 03fc 8a3d c7d3 083c
00000020: fda6 433c a876 97bc b21b 513e 4caa 9b3c
00000030: d862 793d ed31 d63d 8ac1 973d 9dc7 233e
00000040: 6a19 1cbd 6957 723c 2d2b c03d 1a92 fb3c
00000050: 34a4 13bd 9101 d83d 5601 b33d dcf3 293c
00000060: a65c 013e 943e 603d 8b58 28ba e452 323d
00000070: d6fa d4bd 6dfc a0bd 8cd1 613d 0f30 803d
00000080: 463a d23d 0e0d 403b d516 b3bd 432c 823d
00000090: de0c 71bd 469d f93d 1f6f b13c 7212 163d
000000a0: 5211 c3bd ec58 8f3d 89bc 533d 9a6e 633d
000000b0: 5ce2 5d3a bd9a f33d ca86 003e 4112 a6bc
000000c0: 7acf 063e f9a6 a43d fa94 05bc ff72 c93c
000000d0: 5b35 063e ce19 0abd dc10 e73c 186c eb3d
000000e0: 8cf7 2d3b 0965 893a c1a7 c03c 78bc 05ba
000000f0: 91ba fd3d a730 b13c 63f4 8a3d 67af 533d
00000100: 0b9c 6d3d 467d 303d 79fe a6bd 308a 833d
00000110: 920a 883d 9f1c 1b3e 02f2 433d be9f 2e3d
00000120: 76fb 543e 3f7e c7bb dc7d 593d aa0c ea3d
00000130: 37c7 b4bc e123 e43d 9e32 383e c8dc 27bc
00000140: 0cbe c0bb 3333 253e d4b4 afbd b732 3b3a
00000150: bd71 9cbd c6d6 243e d9b9 733c a72d 34bc
00000160: 1a9d 9fbd 8cd2 ccbd 3f50 3e3e 6b3c b33c
00000170: ebcd e7bd 4543 41bd 2c34 e03c c32c 1fbd
00000180: b234 023e 94aa ad3d 4ac1 303d eb86 673e
0.12635316 -0.049337555 -0.10116209 0.044802126 -0.026758177 0.04955711 0.06786349 0.008351273
0.011941669 -0.018489197 0.20420721 0.019002102 0.06088528 0.10458741 0.074099615 0.15994115
-0.038110174 0.014791348 0.09383235 0.030709315 -0.03604527 0.10547174 0.08740489 0.010373082
0.12632999 0.05474718 -0.00064218853 0.043536082 -0.10399406 -0.078606464 0.05513148 0.062591664
0.10265021 0.0029304656 -0.08744589 0.063560985 -0.05885016 0.12188201 0.021659432 0.036638685
-0.09524788 0.069993824 0.051693473 0.0555254 0.0008464211 0.11894748 0.12551418 -0.020272376
0.13165084 0.0803966 -0.008153195 0.024590967 0.13106291 -0.033716016 0.028206281 0.114952266
0.0026545255 0.0010482381 0.023517491 -0.00051016314 0.123891 0.021629645 0.06784894 0.05168095
0.058010142 0.04308822 -0.081540056 0.064228415 0.06642641 0.15147637 0.04783822 0.04263281
0.2079905 -0.0060880478 0.053098544 0.11428197 -0.02206765 0.11139656 0.17988059 -0.010245509
-0.0058820304 0.16132812 -0.08579412 0.0007141041 -0.07638881 0.16097555 0.0148758525 -0.0109972125
-0.077936366 -0.10001096 0.18585299 0.021879395 -0.113185726 -0.047183294 0.027368627 -0.038861047
0.12715414 0.08479801 0.043153085 0.22610061

fc3.weight f4 [10, 100]
00000000: f7f5 9d3e a46f 8abd 521d 73bd a98e 0ebd
00000010: 2432 d6bc b70b febd f8ae 9a3e 3a49 29be
00000020: 6019 053e c079 d73d 4a67 ccbe 5f37 2e3e
00000030: 3af8 0cbd 4931 a4be 77e8 a43c 1e91 79bd
00000040: b607 fb3d 8076 0e3e 0654 593c 6dea f03d
00000050: 8cbf a33e 5e72 863e 5028 5dbe f561 523e
00000060: 3f78 27bf d9ea c3bd 31f0 debd 3124 21be
00000070: ed3b d43e b5ab 7a3e 9443 8c3d 2afb 4e3e
00000080: dd04 6c3e 3afa 39bd 5d6c adbe eb3b cd3c
00000090: 5cbf fe3c a773 6d3d fcc2 24bd 14af 583e
000000a0: 47ad 77bd 5604 bb3d d475 193e 5172 f4bd
000000b0: 18e9 e03b f4f4 d5bd 44c1 31be 3a4a 89be
000000c0: e606 12be a3c2 3bbe 9e0b 033e 3031 1dbe
000000d0: 5862 0ebe 5bc8 0abf 41ff 883e 7963 d03a
000000e0: 66ed 3ebc 22a2 e2bc fdd5 e1bd 42d4 b53c
000000f0: ea46 8abd 1e55 543c 87be 60be 7f27 173f
00000100: ffc8 14be 61e0 4cbe 68ba 85bd 3d0b 7fbe
00000110: 9b18 a03d d7ff 16bd 2975 393e 1d3f f63e
00000120: cfef bfbd d8ed f2bd 1e2f b33e 175c 863a
00000130: cf6b d1be dc2c 3c3e d953 62bd 182a 93bc
00000140: be90 38bd 1519 47be 3409 84be 23c2 913c
00000150: 6e18 ba3c 0def 64bd 2509 8a3e 68bb 1d3e
00000160: d330 9c3d f6ef 9b3c 77ed 06bf da16 1cbd
00000170: 7143 b33e 65e1 9f3d 0343 39be 89b9 663d
00000180: 4f7c 38be e368 e13d 3aad 00be d3e7 9ebe
00000190: 8e66 0cbd c048 973c 4f1e ce3d b2e3 8a3e
000001a0: 04d7 973d 4902 24be 5750 0ebe 986c a8bb
000001b0: f4bb e9be 17c5 ddbc 26bf a33e 9550 d9be
000001c0: 7464 d23d 3c82 123f 072d ee3b 4d2c a93e
000001d0: de36 2d3e e48a cf3d b62a 453e 38a4 28be
000001e0: b513 7cbc e4b7 9cbe b222 75be 4c25 02bf
000001f0: b290 56bd 4274 ea3e 9ae6 bfb8 df8d 863e
00000200: 0f14 02be 5d9d 403e f5d8 46be 7139 40be
00000210: 57eb 42be 3aad e03d d9b9 abbe 6cb8 06be
00000220: 9b02 a2bc d539 f4bd 350b 5a3d a866 31be
00000230: 7ccb dc3d f001 f93c b0dc 173e d782 b73e
00000240: 212c 503c 2c49 c63d 5899 af3e 4387 883e
00000250: 5e8b 803e eeba b2bc 856a 563e 3e83 f5bc
00000260: 6944 61be 0690 193e 928f 87be dfb8 92bc
00000270: 5a22 f4bc c905 6bbe c21f a2be c2dc 303d
00000280: a2c2 e13b 3464 84ba bcbe 763e 71cc a8be
00000290: 72dc 97bd 88f0 023e cec6 ca3d ba8f 1c3e
000002a0: 35c7 293d 62a9 c13e 076d a2be c0d2 593e
000002b0: 7608 2f3e 55c4 313e 9be8 e43c a3e1 a5bd
000002c0: 8386 4bbe 9c26 9dbd 2a2f 8f3d a766 ae3d
000002d0: 8d61 b2bd d28d 15be b6d9 8b3e 6eb9 7f3e
000002e0: 1698 3e3d fea3 88be 0527 80bd 84bd c23d
000002f0: 9d47 bb3d e485 43be de65 dc3e 7af2 383e
00000300: 130f 9cbe 59f5 303d 23e9 583c e4dd 1f3e
00000310: 691f 583e c4e9 94bd 93cc 293d 0fd6 bc3e
00000320: d328 74bd e672 433d c0f2 94bd 3685 f73d
00000330: 59a3 473e 2b71 72be 4e0a 9e3e ffd1 0fbd
00000340: 204f 113e 5224 863e 8c98 9dbe c314 563d
00000350: 93f1 2e3e 8f06 983d fb72 bcbc 4a3c 89be
00000360: 06db 963e ea8e 383d e487 d6be ad4a 4a3c
00000370: 697c d63e 163f db3d 195e 473e 885d e83e
00000380: e1f8 b2bd 8bc4 103f bcfc b4be f6b9 a73d
00000390: a5af 433e eefb 9d3e e555 dabd e43e 71bd
000003a0: 7ef9 123e 7f7f 96bd 56ce 0abd 4b50 fcbd
000003b0: 89af 2bbd c04d b1be 6015 52bd d5c4 fabe
000003c0: 939f 34bd fb53 6e3e d371 c03d a8a8 6b3e
000003d0: 3f8f e3bb 9672 633e 6bed 353e b436 34be
000003e0: 3fb2 42be 2e41 cd3d 142f 373e da09 82bd
000003f0: 6bdf 96be 9ca7 8f3e 064e c73e 3340 30be
0.3085172 -0.06759575 -0.059354134 -0.03480402 -0.026146956 -0.12404578 0.30211616 -0.1653184
0.12997961 0.10521269 -0.39922553 0.1701331 -0.034416415 -0.32068852 0.02013038 -0.06092941
0.1225733 0.13912392 0.013264662 0.11763463 0.31982076 0.2625913 -0.21597409 0.2054518
-0.65417856 -0.09566278 -0.108856566 -0.15736462 0.4145197 0.24479564 0.06848827 0.20212999
0.2304873 -0.04540465 -0.33871737 0.025052985 0.031097107 0.057971623 -0.040225014 0.21160537
-0.060467985 0.091316864 0.14986354 -0.119358666 0.0068637244 -0.10447112 -0.17358881 -0.26814443
-0.14260444 -0.18335967 0.127974 -0.15350795 -0.13904703 -0.5421197 0.26757243 0.0015898786
-0.01165328 -0.027665202 -0.11027143 0.022195939 -0.06751807 0.012959747 -0.2194768 0.5904464
-0.14529799 -0.20007469 -0.06529695 -0.24906631 0.07817193 -0.03686508 0.181111 0.48095027
-0.09371912 -0.11861771 0.34996885 0.0010250834 -0.40902564 0.18376487 -0.055255745 -0.017964408
-0.045059912 -0.19443162 -0.2578827 0.017792767 0.022716727 -0.05589204 0.26960102 0.15403521
0.076265 0.01903532 -0.5270609 -0.03810773 0.3501239 0.078066625 -0.18091969 0.056329284
-0.1801617 0.11006334 -0.1256608 -0.31036243 -0.03427749 0.018467307 0.10064375 0.27126843
0.07414058 -0.16016497 -0.13897835 -0.0051398985 -0.4565121 -0.027071519 0.31981772 -0.42444292
0.10273066 0.5722997 0.0072685513 0.3304161 0.16915461 0.10133913 0.19254574 -0.16468894
-0.015385558 -0.30609047 -0.23939016 -0.5083816 -0.052384086 0.45791823 -9.1505426e-05 0.26280114
-0.12702964 0.1881003 -0.194187 -0.18771912 -0.19035088 0.1097054 -0.33540228 -0.13156289
-0.019776633 -0.11925093 0.053233344 -0.17324317 0.10780999 0.030396432 0.1483028 0.3584201
0.012705834 0.09681925 0.3429668 0.26665697 0.2510633 -0.02181765 0.20939071 -0.029969808
-0.21998753 0.14996347 -0.26476723 -0.017910419 -0.029801536 -0.22951426 -0.31664854 0.04317928
0.006889657 -0.0010100664 0.24096197 -0.32968476 -0.074150935 0.12787068 0.099012 0.15289202
0.041449744 0.3782454 -0.31723806 0.21271801 0.17093071 0.17360051 0.027942946 -0.080996774
-0.19875531 -0.0767338 0.06991418 0.08515673 -0.087100126 -0.14604881 0.27314538 0.2497308
0.04653176 -0.26687616 -0.062574424 0.095088035 0.091445185 -0.19094044 0.43046468 0.18061247
-0.3048025 0.04320273 0.013239178 0.15611988 0.21105732 -0.0727115 0.041454863 0.36882064
-0.059609246 0.047716998 -0.072728634 0.12085955 0.19495906 -0.23675983 0.30867237 -0.035112377
0.1419034 0.26199585 -0.30780447 0.052265894 0.17084341 0.07423126 -0.023004046 -0.2680381
0.29463977 0.04505817 -0.4190055 0.012346906 0.41891792 0.10705392 0.19469489 0.4538386
-0.08738876 0.565499 -0.3534907 0.08189766 0.19109972 0.3085627 -0.10660914 -0.058897868
0.14352986 -0.07348537 -0.033888184 -0.12320002 -0.04191545 -0.3462963 -0.051289916 -0.48978296
-0.044097494 0.23274224 0.0939671 0.23013556 -0.0069445665 0.2221168 0.17766349 -0.17598993
-0.19013308 0.10022198 0.17889053 -0.06349535 -0.2946733 0.28057563 0.38926715 -0.1721199

fc3.bias f4 [10]
00000000: 0222 7abe 75a9 a53e a295 debd bac6 07be
00000010: 5cb6 c33d 6ddf 8c3e c420 5a3d 2ad9 a43d
00000020: 4877 8ebe d146 a3bd
-0.24427035 0.32355848 -0.10868384 -0.13259402 0.09556267 0.2751421 0.053253904 0.08049233
-0.2782538 -0.079724915
