mnist/train/mnist/MNIST/models/best_model.pt (torch, 360559 bytes, 6 tensors)

fc1.weight f4 [100, 784]
00000000: f2a0 ad3c f1d6 0f3d d587 97bc 2400 08bc
00000010: 0853 efbc 7005 6ebb c233 ef3c 0ad0 c43c
00000020: 651e 02bd f609 0cbd b1c7 023d 70ae 513b
00000030: cee9 04bd b761 c8bc 7bf5 b4bb bb7a d73c
00000040: e0dd 5cbc e43a f3bb 6cd4 e6bc 3ced 5a3c
00000050: ec56 c53c 0534 bdbc d12f e8bc 0607 df3c
00000060: 3030 68bb 48f5 ce3b 9e9d b33c b846 7fbc
00000070: 5c80 c93c b0b0 49bb f07b 563b 85a1 8ebc
00000080: d75d 353c 2209 01bd f691 d13c bdbd b63c
00000090: 15fc adbc e4b6 0e3b 06a7 d4bc d8fb 12bd
000000a0: 5cc9 1ebd de57 09bd 5b5b e9bc a6f8 23bd
000000b0: 0bbc 14bd 62c4 6ebc afdf 96bc 304a 5c3b
000000c0: 3097 bd3b 7aec fabc 0e4a 5f3c f0d8 c0bc
000000d0: 18d6 9a3b b6bc a43c 3063 e03b de6f a5bc
000000e0: e62c 1abc 5ac6 c3bc 3a21 c93c 94cc dfbc
000000f0: 154a 89bc ca3f 53bc 187d c13b 681a e3ba
00000100: 64e4 a8bc bd95 b139 9c26 09bd d004 253b
00000110: ed71 42bd f501 1cbd 8fdb 4fbc 59ca 8dbd
00000120: d2d9 c1bc faca 903b d333 af3c fe7d 863c
00000130: c588 953b 2526 9a3b b128 72bc efac ac3c
00000140: e5e4 b63c 3621 65ba de30 bebc ba8b b6bc
00000150: c8ca dfbc b897 fbbb 6da2 d43c 2bb1 f33b
00000160: e5a2 aaba 72a6 c7bb f4a3 dbbb 050a bf3c
00000170: 7d00 83bc 8d7c 3ebc f61c debc 4d08 52bc
00000180: c4d9 69bd a1f3 97bc 9431 f9bc 6f7d 3abd
00000190: 9b1b a7bc feb1 433b 255f 19bd dd09 69bc
000001a0: 6092 f53c a88d a1bb 5768 913c fa88 033d
000001b0: 1e64 d93c a07e 16bc b1ae bab9 aa45 12bd
000001c0: c617 9a3c a72b 09bc aed8 b33b 62c1 503c
000001d0: 0c6f db3b 856d c2bc 21f4 acbc 24d3 c7bc
000001e0: 3524 0ebc 4987 39bd 5730 adbd de48 a83c
000001f0: a065 2f3d 2a17 263d 2f1c 8dbd 521b 0ebd
00000200: dd13 28bd df26 073d f637 4ebc 1fa6 483c
00000210: e5a6 a83c 2156 8f3d fbc8 243d 0e69 453d
00000220: 120f d03c 7305 193d 4905 49bc af81 e73c
00000230: 1492 bdbb 0475 11bc 4c3b ccbc f7a5 fbbc
00000240: 4c86 f1bc ca8b 96bb 21d1 333d 9e3e 993c
00000250: 5dd8 b63c 5290 7e3d 68e4 6f3b dcdd 523d
00000260: a6c0 813d 2838 aabc ea54 8bbd 9368 20bd
00000270: 0f60 0dbd d8f8 84bd 952b 38bd ccf9 4cbd
00000280: 3a0f f1bc a235 b4bd 70ca 56bd 6599 3bbc
00000290: 8a55 dabb f4e3 043d 1d9f 01bd ef90 1c3b
000002a0: 97c9 08bd f7d3 3dbc d70c c2bc 04f9 e1bc
000002b0: e2c0 3abb dbb6 273d 044f 3a3d 3b4b 853d
000002c0: 8bdd 523d aa04 323d 8b67 13bd b7b8 b83d
000002d0: 840d 823c d966 713d 71d5 85bc 17be 3d3d
000002e0: 60f3 ad3c 19c5 98bc b73d 80bd 49c9 f73b
000002f0: 9075 953d 31c9 8b3d deec 4f3d 114c 153d
00000300: 91f6 33bc 1909 9f3c 0666 df3c 0917 b43b
00000310: a242 103c 4b7f d9bc d663 7d3c 0810 33bc
00000320: 3679 cd3c 1c6a fd3c 6b67 6f3d 2d4e 0c3d
00000330: 4819 99bc d386 293d e118 aa3d 8207 a73d
00000340: 0398 b33d b58f 253d fcdd 21bd 41ef b73d
00000350: c60d 143d 8521 9e3b b38b 463d 3fd3 a83d
00000360: b5bc 863d 55e1 973c 9647 943c becb a63d
00000370: 4339 793d 8645 1c3c bdd7 d3bc 892c 923c
00000380: a1d6 04bd b1ac dbbc 77e4 403b 29e4 163d
00000390: 0219 723c a4dc 083d 3365 7e3d 92e3 ad3c
000003a0: 28ca 0f3d 5304 563d 0e0d 84bc 5363 c43d
000003b0: 7481 033d 6d55 c13c 4bcb 453d b014 bc3d
000003c0: e28f 1c3d 2ebc a3bd 5407 f23d 6db0 8fbc
000003d0: 9dfa 1fbd 8849 9dbb 12ff f7b9 9ba5 373c
000003e0: 7962 a73d d15d 6c3c 3d50 ca3c d953 be3c
000003f0: 3745 a33c c159 a23c e6a9 2d3d 79ed f33c
0.021194909 0.035117093 -0.018497387 -0.008300815 -0.029214397 -0.003631916 0.029199485 0.024024982
-0.031767268 -0.034189187 0.03192872 0.0031994842 -0.032449536 -0.024460657 -0.0055224276 0.02630364
-0.0134806335 -0.007422792 -0.028177463 0.013362225 0.0240893 -0.023096094 -0.028343113 0.027225029
-0.0035429113 0.006315861 0.021925744 -0.0155808255 0.02459734 -0.003077548 0.003272768 -0.017411003
0.011069736 -0.03150285 0.025582295 0.022307271 -0.021238366 0.0021776492 -0.02595855 -0.03588471
-0.03876625 -0.033531062 -0.028485944 -0.04003205 -0.036312144 -0.0145731885 -0.018417208 0.0033613555
0.005785845 -0.030630339 0.013628496 -0.023540944 0.004725229 0.020109516 0.0068477616 -0.020194944
-0.009410119 -0.023898292 0.024551976 -0.02731923 -0.016758958 -0.0128936265 0.005904805 -0.0017326595
-0.020616718 0.00033871635 -0.033484086 0.002517987 -0.04747193 -0.038087804 -0.012686624 -0.069233604
-0.023663435 0.004418728 0.021387016 0.0164175 0.0045634233 0.004704254 -0.014780209 0.021078555
0.022325942 -0.00087406056 -0.023216661 -0.022283424 -0.027318373 -0.0076779984 0.025956357 0.0074368916
-0.0013018517 -0.00609284 -0.0067028943 0.023320207 -0.015991444 -0.011626375 -0.027113419 -0.012819362
-0.057092443 -0.018548789 -0.030419149 -0.04552978 -0.020398906 0.002986073 -0.037444253 -0.014223543
0.029977024 -0.004930217 0.017749948 0.032113053 0.026536997 -0.009185463 -0.0003560684 -0.035710968
0.018810164 -0.008372224 0.0054884767 0.012741419 0.0066965874 -0.023733864 -0.021112503 -0.024392672
-0.008675625 -0.045295034 -0.08456486 0.020542558 0.042821527 0.040549435 -0.06890141 -0.034694023
-0.041034568 0.032996055 -0.012586584 0.012246638 0.020587394 0.0699885 0.040230732 0.04819589
0.025397811 0.037358712 -0.0122693265 0.02826008 -0.005785236 -0.008877996 -0.024930619 -0.030718787
-0.029482983 -0.004594301 0.043900613 0.018706616 0.022319967 0.062149353 0.0036604647 0.051481113
0.06335573 -0.02077873 -0.068033054 -0.03916223 -0.034515437 -0.06492776 -0.044963438 -0.050042912
-0.029426206 -0.08799292 -0.052439153 -0.011450146 -0.006663029 0.032443956 -0.031645883 0.0023890098
-0.033395376 -0.011586181 -0.023687763 -0.02758456 -0.0028496315 0.04094587 0.04548551 0.0650849
0.05148081 0.04346148 -0.03598742 0.090196066 0.015875585 0.058935974 -0.016337128 0.046323862
0.021234214 -0.018648671 -0.06261771 0.007561837 0.07297814 0.068254836 0.050763004 0.036449496
-0.010984079 0.019413518 0.027270328 0.00549591 0.008804949 -0.026549956 0.015465697 -0.010929115
0.025082212 0.030934386 0.058448236 0.03425424 -0.018688813 0.041388344 0.083055265 0.08155729
0.08769228 0.040420253 -0.03951834 0.08981181 0.036145948 0.004825773 0.04847307 0.08243417
0.06578962 0.018540064 0.018100541 0.081443295 0.060845625 0.00953806 -0.025859708 0.017843502
-0.03243125 -0.026815744 0.002943305 0.036838684 0.01477647 0.033413544 0.06210823 0.021226678
0.0351049 0.052250218 -0.016119506 0.09589257 0.032105878 0.023600304 0.04828958 0.09183633
0.038223155 -0.07994877 0.11817804 -0.017540181 -0.039057363 -0.0048000254 -0.00047301553 0.011208917
0.08173079 0.014426664 0.024696464 0.023233341 0.019930465 0.019818189 0.042398356 0.029776322

fc1.bias f4 [100]
00000000: 4207 213e b754 2cbe 4c1c 803d e999 783d
00000010: 6a4f 3ebd 6648 9b3d ac2e af3d 6647 13be
00000020: 92d8 aa3e 8d59 4f3c 6c28 363e 56bd d93d
00000030: df55 4a3e 2461 b73d d1b7 a9bd d3e8 043e
00000040: 8ea1 cabd c00a d23d 6e4a 963d f86c ac3d
00000050: 73c0 553d 8d24 e4bc b93d b73c 4d58 d33c
00000060: 0353 c13d b9ba f3bb 524f ac3d 935d f83d
00000070: 498b 803d b152 ac3d a89f c8bd 12b3 b23e
00000080: 37fc 0d3e ddd6 ecbc be81 343e 987e 453d
00000090: ef4c 803e 9af8 00be 8e79 053e 4e6f 5dbd
000000a0: 4a3d 0fbd b05e 853d df2a d0bc 6fc3 90bd
000000b0: d416 933c 5f80 4ebc a091 293d 64ec c7bc
000000c0: 1d23 e0bc 6ec9 223e e90f 6bbc 3002 433d
000000d0: 8b13 a6bc c483 dcbd ece4 0e3e 7b63 5e3e
000000e0: acaa 303e bc91 dc3d dcc6 823b 43fe 383e
000000f0: f05a 463d 1705 4abd 7d2d b43d 1c81 7f3d
00000100: 3e33 f2bc 0f50 8d3d 0455 743e 50ee 3dbe
00000110: 0169 27bd 7973 dd3d f7a4 a83d 8ed5 15bd
00000120: ef63 6b3d 4945 b43d 283e 84bd f472 4b3e
00000130: 93b2 943d 4a80 62be b3fe 0f3e 0362 5dbe
00000140: f05a 43bc b8d0 203d 506e a03d 762d c8bd
00000150: c093 71bc 73f3 c2bc 31d7 7ebb 3b2a 0b3e
00000160: de74 bc3d c64e 453e e42d 853e e2a8 4abd
00000170: e925 773c ee37 af3d bdb5 fc3c 6030 89bc
00000180: 3113 0abe 725f 623c 3491 5d3e ca09 d93d
0.15725425 -0.16829191 0.06255397 0.060693655 -0.046462454 0.07582168 0.08553824 -0.14382705
0.33368355 0.012655628 0.17788857 0.10631816 0.1975932 0.08954075 -0.08287013 0.1297944
-0.09894095 0.10255957 0.07338415 0.08419222 0.052185487 -0.02784946 0.022368299 0.025798941
0.09439661 -0.0074380306 0.08413567 0.12127223 0.062765665 0.0841421 -0.09796077 0.34902245
0.13865744 -0.028911049 0.17627618 0.048216432 0.25058696 -0.12594834 0.1303465 -0.054061227
-0.03497056 0.06512201 -0.025411068 -0.07068526 0.017955221 -0.012603848 0.041398644 -0.024404712
-0.027360493 0.15897152 -0.014347055 0.047609508 -0.02027299 -0.1076732 0.13954514 0.21717636
0.17252606 0.10769984 0.003990991 0.18065743 0.04842657 -0.04932126 0.08797739 0.062378988
-0.02956545 0.069000356 0.23860556 -0.1854794 -0.040871624 0.1081304 0.082345895 -0.036580615
0.05746835 0.088022776 -0.06457168 0.1986807 0.07260623 -0.22119251 0.14062004 -0.2161942
-0.011923537 0.03926155 0.078335404 -0.09774296 -0.014744699 -0.023797726 -0.0038885588 0.13590328
0.09201978 0.19268331 0.26011574 -0.049477465 0.015084722 0.085555896 0.030848378 -0.0167467
-0.13483883 0.013816701 0.21637422 0.1059757

fc2.weight f4 [100, 100]
00000000: 95f6 253e 673a 3ebd 3906 753d ab1a b23d
00000010: 26af 0fbe b955 163e ac44 203e e391 02be
00000020: 3087 1b3d 25d1 adbd bffa d13d 34ef 933d
00000030: feb2 f43d b412 173e 6582 e1bd 4617 4ebe
00000040: 3d69 cdbd 024b 37be f8ef 623c 38f0 1d3e
00000050: 2ae3 09bd 0533 95bd c1a3 79bd c30b bfbd
00000060: 76fb 543d 3668 ce3d 9bf1 a23d dbc5 163d
00000070: 6c6a 68bd 9ee1 f2bd e56d 87bd e9ea a83d
00000080: 34a4 cb3d f4c2 043e c237 0b3e b7b3 26be
00000090: 97eb ca3d 3643 59be 046b 8e3d 7bb0 493d
000000a0: 6f32 eabd ac2a fcbc 46c3 39bd 234b 76ba
000000b0: b836 a33d 16ee 94bd 6e5b ac3d 11a4 863d
000000c0: 2617 0cbd 6874 41be 0feb d53d 6b5d 15be
000000d0: 1314 9cbe 1a28 b53d dd4f c53e cde6 093d
000000e0: 80d4 843e 1d2d 5c3d 6f2c 743c 0a0b 8f3c
000000f0: c870 023e f563 51be e876 bebc c2a4 03bd
00000100: 4ffa a33d f3e2 4f3e f643 553e c740 193d
00000110: 59fd 96be 58c7 ecbd f721 763d 9f2d a33b
00000120: c166 213e a28f 8bbd 4b42 62bd b3f6 d73d
00000130: c33e e2bd ee81 82bd 9abc 8d3c f98f c23d
00000140: 95a1 aa3d 82d3 7d3e c40c 01be d3d0 17be
00000150: dea2 41be 2418 0d3e 0ca9 193e c9f3 d53d
00000160: 3c13 8a3e ac4c 283e 0ae2 c43d 9d4b 593b
00000170: fbed 0abe c5ec 2cbd 805f 25bd 0de6 88be
00000180: 6ec2 8cbb cb5f 873d 9b51 b0bc 533b 103e
00000190: 0bfc a1bd 1f21 d8bd e074 a93d 0521 c43c
000001a0: 9490 3e3c bc07 c3bd 6321 c8bd 3018 303e
000001b0: d248 3bbd 64a0 963d 95a3 2a3d a848 fe3c
000001c0: 6b02 a8be a13c d43d c4a3 03bd 16f8 1f3c
000001d0: 3ccf 2b3e 3816 24bd 8617 253e 8812 e83e
000001e0: 6ba4 2d3c 9b3f 59be 9742 313e d90b 8ebd
000001f0: 675e f93d bfca 49be ec19 d13d 5670 913c
00000200: 1e4b 303e dc99 f7bd d9fc c5bd a18c 97bd
00000210: 0db0 63be 48b6 90bc 5d7d dfbd d14e c8be
00000220: c15d 263e c6bb 4b3e 1473 bebc f105 693d
00000230: 7a93 80be 72ef eabd 9ef1 873d dcd7 8f3e
00000240: 86d1 313e aebc 10be ffbd 64bd d595 33be
00000250: 5df9 cbbc 9c59 6cbd 6a2b fe3d bb48 a8bd
00000260: be11 243e 6d5c e6bd 172a a43d 0ca9 3abe
00000270: b322 48bd 227d aebe 1e30 2ebe 13b4 443e
00000280: 8a55 abbd d2f7 0b3d feb8 743e 8aab 723d
00000290: 4a1b 303e 0df3 b13d 37f5 83bc 111e 183e
000002a0: 6bf5 7a3e 5ced 24be 7ce1 b63d 0dbc 20be
000002b0: a2ea 8f3e 7b5d 33be f3ff 9abd 88e6 a73c
000002c0: 6169 803d 33fd 0d3e 5584 e93d 5d8d 783d
000002d0: 4680 5cbc 4442 75bd be7e 293e 590f 4bbe
000002e0: 9b13 7c3e b651 cb3d 0360 e8bd 88d4 843d
000002f0: adb8 843e 2d98 7fbd e9ec 07bc ad16 b1be
00000300: 5aa6 b03c 34b4 a5bd a8cf 083d 28ae a03d
00000310: e171 1fbe f758 4b3d d358 d43d dc5f c83d
00000320: 062e 593d 3f5e 9d3d d8df d73c 3db0 5ebd
00000330: 40ce ffbc 20ce a4bd ad2d 203d 4dbe 3dbb
00000340: 9f2d 6a3e b6ca 823d 80e1 a0bc cc28 9d3c
00000350: 8d44 04be 595e bbbc 4c79 fbbd 2444 c0bc
00000360: eb26 82bd 98f0 b1bd edfe cc3b 13b2 bebd
00000370: a048 bebd d9b0 1b3d 809c a23d 7542 44bd
00000380: b119 5f3d 661e 9e3d f904 d23c c65a 363c
00000390: 8a39 293d d756 26bb 0e5c 8bbc 3b82 df3c
000003a0: 0604 0dbe 5ac2 ec3d 5505 023e f071 ad3d
000003b0: 22f0 cebd 39e6 efbd a0df 803d 7e9c cf3d
000003c0: e79c 943d 23e8 c53d 7078 e93d 216d 2abe
000003d0: f125 17bc 3f4e 3dbe 3d98 ce3d 0670 2ebd
000003e0: 6580 673d 55ec fbbd 494d 983d 0c70 7d3c
000003f0: 6bdd 98bd 229a 213e 4013 a83d c9fb 58bd
0.16207345 -0.046442416 0.059820388 0.08696493 -0.14031658 0.14681138 0.15651196 -0.12750964
0.03797072 -0.08487157 0.10252904 0.07223359 0.119482026 0.14753228 -0.11011199 -0.20126066
-0.10029838 -0.17899707 0.013851158 0.15423667 -0.033663906 -0.07285122 -0.060947184 -0.09328415
0.051997624 0.100784704 0.07956239 0.036809783 -0.056742117 -0.11859439 -0.066127576 0.082479306
0.09943429 0.12964994 0.13595489 -0.16279493 0.099082164 -0.21217045 0.06954005 0.04924057
-0.11435401 -0.030782066 -0.045352243 -0.00093953515 0.07969421 -0.07271974 0.08415876 0.06574262
-0.034201764 -0.18892062 0.104452245 -0.14586417 -0.30484065 0.088455394 0.38537493 0.033667374
0.25943375 0.05375396 0.014903172 0.017461319 0.12738335 -0.20448287 -0.023250058 -0.032139547
0.08006727 0.20301418 0.20826706 0.037415292 -0.29490164 -0.11561459 0.060090985 0.0049798037
0.15761854 -0.06814505 -0.055239003 0.10545101 -0.11047127 -0.06372438 0.017301846 0.09500117
0.083316006 0.24787715 -0.12602526 -0.14825754 -0.18909785 0.1377874 0.15005893 0.10446889
0.269678 0.16435498 0.09613426 0.0033156641 -0.13567345 -0.04221799 -0.04037428 -0.26738015
-0.0042956388 0.06610068 -0.021523288 0.1408513 -0.079094015 -0.10553192 0.08274245 0.023941526
0.01163115 -0.095229596 -0.09771993 0.17196727 -0.045723744 0.07354811 0.04165991 0.031040505
-0.32814345 0.103631265 -0.0321386 0.009763738 0.16778272 -0.040060252 0.16122255 0.45326638
0.010598282 -0.2121567 0.17310558 -0.069358535 0.12176209 -0.19706248 0.10210022 0.017753761
0.17216155 -0.12089893 -0.096673675 -0.0739987 -0.22235127 -0.017665043 -0.10912583 -0.39122632
0.16246702 0.19895849 -0.023248233 0.05689043 -0.25112516 -0.11471452 0.06637882 0.28094375
0.17365083 -0.14134476 -0.055845257 -0.17537625 -0.02489918 -0.057702646 0.12410624 -0.08216997
0.16022393 -0.112480976 0.080158405 -0.18228549 -0.048861217 -0.34079844 -0.17010543 0.19209318
-0.08365925 0.034171887 0.23898694 0.059245624 0.1719791 0.086889364 -0.016108138 0.1485522
0.24507682 -0.1610617 0.089297265 -0.15696736 0.28108698 -0.17516129 -0.0756835 0.020495668
0.062700994 0.13866119 0.114021935 0.06068169 -0.013458317 -0.05987765 0.16552255 -0.19830073
0.24616854 0.099276945 -0.11346438 0.064858496 0.25922146 -0.062400986 -0.00829623 -0.34587613
0.021563698 -0.08091012 0.03340116 0.07845718 -0.15570785 0.04964539 0.103685044 0.09783909
0.053022407 0.07683992 0.026351854 -0.054367293 -0.031226277 -0.08047128 0.03910606 -0.002895254
0.22868966 0.0638632 -0.019638777 0.019184493 -0.12916775 -0.022872137 -0.12278995 -0.023469992
-0.06355079 -0.08688468 0.0062559755 -0.09311309 -0.09291196 0.038010452 0.07940006 -0.04791494
0.05446786 0.07720642 0.025637137 0.0111300405 0.04131464 -0.002538135 -0.017011669 0.027283778
-0.13771066 0.11560507 0.12697347 0.084689975 -0.101043954 -0.11713833 0.06292653 0.101372704
0.07256489 0.09663417 0.11399925 -0.16643192 -0.0092253545 -0.1848688 0.10087631 -0.042587303
0.05651893 -0.12300936 0.07436616 0.015468609 -0.07464107 0.15781453 0.08206797 -0.052974496

fc2.bias f4 [100]
00000000: ee36 0e3e 3d87 c43d 90fe 053e 2826 263c
00000010: 6e8b 423d 4728 d4bc bd5a d63d f4ce c93c
00000020: c024 4d3d 7e4c 2f3d d605 95bd 340c 923c
00000030: e82f 113e 7848 6cbc c846 bfbc 3261 243e
00000040: db12 ddba 78f9 8ebd 577f ad3d 1b07 3c3d
00000050: 0228 2d3e 44fc 75bd dcac 8b3e b4d8 e93d
00000060: 96ee 46bd dc8e 633d 0a67 053e cdd2 a3bd
00000070: bf2c 133d 869a 563d 80d6 55bd d38a 463c
00000080: 38b0 303e 505b af3d deeb 263e 20fa c0bc
00000090: ee37 6d3d 3344 9b3c a173 70bc e8bd d2bb
000000a0: 6694 983d b75c 2abd fafe 073e f38f 7dbd
000000b0: 0924 973d a750 783d c1f1 e23c b9f8 a0bd
000000c0: 0f48 5bbc 9b77 403c 398c 7cbd 7748 283e
000000d0: e5b6 8f3e 5ae9 66bd 1211 633e 9984 323e
000000e0: 862a 143e 3dcf 393d b46b 6c3c a590 973d
000000f0: 33f9 613e 2c4a 473e 56b2 4c3d f708 113e
00000100: ff14 db3c cdb8 153d f1c4 be3d edc4 0d3e
00000110: 567e db3d 8761 d23d e571 723e ef24 583e
00000120: ca50 a03d c3b3 043e 84de 0b3e c65b 52bd
00000130: 2940 563e 1762 053e fe17 c73c 0c6c d4bd
00000140: ecd1 6b3e a58b 813b ccae a53c f775 1f3d
00000150: 8223 b33d accb 503e 1487 a63c 8c86 7d3d
00000160: 7e4c 963e 7b39 233d 8667 573d 363a 3bbd
00000170: 07e7 273d 2971 ff3d 064f 713e f864 9bbd
00000180: bf11 fa3c b6bb 463e d54d 5a3d 6c0a 62bd
0.13888142 0.09596107 0.13085389 0.010140933 0.04749625 -0.025898112 0.10466526 0.024634816
0.050083876 0.042797558 -0.07276504 0.017828085 0.14178431 -0.014421575 -0.02334918 0.16052702
-0.0016866581 -0.06981176 0.08471554 0.045905214 0.16909793 -0.060055032 0.2728032 0.11418286
-0.048567377 0.055556163 0.13027588 -0.079991914 0.035931345 0.05239346 -0.052206516 0.012118059
0.17254722 0.08562338 0.16300914 -0.023556769 0.057914667 0.018953418 -0.014676006 -0.00643133
0.0745018 -0.041592326 0.1328086 -0.06190486 0.0737992 0.06062379 0.027703168 -0.0785994
-0.013383879 0.011747266 -0.061657164 0.16433893 0.28069225 -0.056374885 0.2217448 0.17433394
0.14469346 0.045363653 0.014429975 0.07400636 0.22067718 0.19461888 0.049974762 0.14163576
0.02674341 0.036553193 0.09314907 0.13844652 0.10717456 0.10272508 0.2367626 0.21107839
0.07827909 0.12959199 0.13659102 -0.051357053 0.20922913 0.130257 0.024303433 -0.10372171
0.23029298 0.0039534145 0.020224951 0.03893086 0.08747007 0.20390195 0.020328082 0.061895892
0.29355234 0.03984974 0.052588962 -0.04570981 0.04099181 0.124727555 0.23565301 -0.07587618
0.03052604 0.19407544 0.053296883 -0.05518572

fc3.weight f4 [10, 100]
00000000: 3cb9 fe3e a932 babe 6f97 ae3d 434b 4a3f
00000010: c010 803d fb97 4e3e 6020 ac3e aafa 4abd
00000020: 4b68 bcbd 8a53 90be b18b 793e 7065 99bd
00000030: 0d7c 893d e885 a63e c9f7 813d 2ed0 4dbd
00000040: 8e0d 76be f388 8a3d 2178 61bd 4027 a2be
00000050: 3274 fdbe 8717 6e3d c3b0 b5be 4f49 d83e
00000060: 9c82 4ebd 9b01 83be 9e22 a5be 6337 e73e
00000070: 6715 da3d 3272 3fbe 1145 b63c acd7 f83e
00000080: 91ed 38be ad76 ac3e 5fcb e53e a4fc d3be
00000090: 4173 173d 150b b03e 767a 7bbd 1bb1 00be
000000a0: 9dc8 0a3f 2af9 7fbd 99b5 d63e c921 8b3d
000000b0: 4a93 8ebe a22d 703e 23b3 66be cc5e 2ebe
000000c0: de60 593c 03c0 41be cfc0 ff3c 21a3 dbbd
000000d0: 0b00 23bf 929e e83e 7de8 28bf 20b3 b8bc
000000e0: d2cb 643c 782f 073f 135c 703c 79ac 033d
000000f0: da19 52bf 5ef9 f6be b773 b43d fcc9 9cbe
00000100: e699 1ebe bf45 683d 84b2 1bbe 2ed1 0dbf
00000110: c546 363e e9aa 023d f81c 88be 6550 0bbf
00000120: 7d1e ba3e 4746 c43d ffa2 883e 3c75 09bd
00000130: 8009 77be 1ded e0be c91f e6be 8035 e33e
00000140: 4ae0 1bbc 3390 aabe e8f3 1bbe e397 193f
00000150: 2bcf 1ebf 68f2 623e c09c be3d 5d7b e33d
00000160: 1e74 abbd be83 033e 5d27 cb3c 964d 3bbd
00000170: 3cb4 cfbe 0dd2 e03e c82d 08bf cbc0 033e
00000180: 5b07 aa3c 0d3c 04bd 71ec df3e 8c65 cb3d
00000190: 6483 9abe 761a 883e 7c58 acbe 350d 153f
000001a0: 1f01 ae3d 21f0 bdbe 1e92 c8be ddaf 213d
000001b0: 7d18 2cbc 7bea 063e 0f97 6a3c c833 8d3d
000001c0: 645d 5a3f 496e 64be b427 1cbf 5e72 483d
000001d0: 1a1d 143f 1063 95bd 9c2e 64bc bc72 013e
000001e0: 223f 073e d329 84bd 492e 1b3f 3dfc 5d3c
000001f0: 8337 943d d61c 27bf 21e7 51be 5308 9bbe
00000200: 9830 16be 9e86 06bf 05ca 123f 2103 ccbe
00000210: 84ea 9a3d 65eb 203e 4abe d6bb 16a2 cdbe
00000220: 530c 79bd e30e 4bbe b7b5 333e 2c0c 90be
00000230: d2c2 98be 18be a53d 1b16 89be 9c59 5e3d
00000240: 709f d73c 087c 6fbe 3fe1 813c 2d60 013e
00000250: ba77 ab3e 1b14 b2be 3629 d0be 2c4a d43e
00000260: 8c36 bc3e 04ab 3cbd 62aa 823f 9fb1 ccbe
00000270: f8a2 a23c 5e4e c0be d3e7 383e e5a4 5a3e
00000280: eab0 283f ac99 8c3e 63e6 b4bd ff7d 4abd
00000290: a0df 25be b5f3 2dbc 35f2 69bc 896f f8bd
000002a0: 05fa 2b3f ad9b 853f b5ec 2b3e 1d18 9f3c
000002b0: 78a7 34be ab70 eabe 83e5 153e 77a2 3d3c
000002c0: 0232 a23e b8c9 5cbe 9bb6 de3d f44e 3e3e
000002d0: ea52 abbe 7474 8d3e 5eab 5d3d f28d aebe
000002e0: fd6a d73c 9ea3 ca3d c1c5 a43e cd17 e2bc
000002f0: 77e7 0ebf 4ff8 8bbe deb1 18be 910d c5bc
00000300: bfc2 d83d 9b38 bbbd 037c 763e dc99 a03d
00000310: 0fa0 e33c 392a 093e 12dc 8fbe 6801 1d3e
00000320: cbf8 d0bc 2861 a53e 9f79 81bd 7e53 42be
00000330: b831 85bd fa79 b2be 788e 0f3f 673a 5b3d
00000340: 81a7 783e 827d 24bf 6774 6e3e 22c8 26bf
00000350: 9083 8bbe ffe5 143e 5b3c 4d3f 3798 0bbf
00000360: e5c9 71be 2c4a b2bd bc81 8ebe 924e 1cbd
00000370: 70b2 623e d075 12bd 1949 df3e 2878 2ebd
00000380: 37bf 11be 241a b63c dab6 843d 814c b2be
00000390: ecb5 0a3e f33e 4ebc 2c4e babe 557b 873e
000003a0: cd51 adbe 458f 483f b30d 303e 4564 0c3f
000003b0: 17fb bf3e 114a 86be 317c 9a3e ffad 07be
000003c0: 559f edba 8a61 433e 9180 54be d325 273d
000003d0: bc4d 3b3f ab78 273b c38b 6bbe 1c7b 8d3e
000003e0: c4c3 78be 7be2 f63e 95c4 c43e ce59 bcbd
000003f0: 3227 913e 029e 293e 19b9 65bd 5a8c 89be
0.49750698 -0.36366776 0.085249774 0.7902109 0.06253195 0.20175163 0.3361845 -0.049555458
-0.0919958 -0.28188735 0.24369694 -0.07490051 0.06713114 0.32524037 0.063460894 -0.050247364
-0.24028608 0.06764402 -0.055046204 -0.3167057 -0.49502712 0.058127906 -0.3548642 0.4224343
-0.050417528 -0.25587162 -0.32252973 0.45159444 0.106486134 -0.18695906 0.02224973 0.48602045
-0.18059374 0.33684292 0.44881722 -0.41403687 0.03697515 0.34383455 -0.061396085 -0.1256756
0.5421236 -0.06249348 0.41935423 0.067935534 -0.27846748 0.23454908 -0.22529273 -0.1702835
0.013267724 -0.18920903 0.031219868 -0.10724474 -0.6367194 0.4543348 -0.6597975 -0.022546351
0.01396461 0.52806807 0.01467039 0.032146905 -0.82070696 -0.48237127 0.08811133 -0.30622852
-0.15488395 0.05670714 -0.15204817 -0.5539731 0.17800434 0.031901274 -0.265846 -0.5441955
0.36351386 0.09583717 0.26686856 -0.03355907 -0.24124718 -0.43930903 -0.44946125 0.44376755
-0.009513924 -0.3331314 -0.15229762 0.59997386 -0.62034863 0.22162783 0.093072414 0.11107514
-0.08371757 0.12843224 0.024799043 -0.04572829 -0.40567195 0.43910256 -0.53194857 0.12866513
0.02075546 -0.03228383 0.43735078 0.09931478 -0.30178368 0.26582688 -0.33661258 0.5822328
0.084963076 -0.37097266 -0.3917398 0.039474357 -0.010503885 0.13175385 0.014318242 0.06894642
0.8529875 -0.22307695 -0.6099808 0.048937194 0.57856905 -0.07294285 -0.013927128 0.12641424
0.13207677 -0.0645329 0.606175 0.013548908 0.072371505 -0.65278375 -0.20498325 -0.30279788
-0.14666975 -0.5254916 0.5733951 -0.39846137 0.075642616 0.15714796 -0.006553446 -0.40162724
-0.06080277 -0.19829898 0.17549787 -0.28134286 -0.29836136 0.08092898 -0.26774678 0.054284677
0.026321143 -0.23387158 0.015854476 0.12634344 0.33489782 -0.34780964 -0.4065644 0.4146284
0.36760366 -0.04606153 1.0208247 -0.39979264 0.0198531 -0.3755979 0.18057184 0.21351965
0.6589495 0.27460992 -0.08833005 -0.049436565 -0.16198587 -0.010617186 -0.014278938 -0.12130649
0.67178375 1.0438133 0.16789515 0.019420678 -0.1764201 -0.45789084 0.14638333 0.011574379
0.31678778 -0.21561325 0.10874673 0.18584806 -0.33461696 0.2762791 0.054118507 -0.3409267
0.026296133 0.09894489 0.32182124 -0.02759924 -0.5582194 -0.27337882 -0.14911601 -0.02405432
0.1058402 -0.09141656 0.24070744 0.07841846 0.027786283 0.13395013 -0.28097588 0.15332568
-0.025509259 0.32300687 -0.063220255 -0.18977162 -0.06503624 -0.34858686 0.56076765 0.053522494
0.24282648 -0.6425401 0.23286591 -0.6514913 -0.27248812 0.14540862 0.8017022 -0.54529136
-0.23612173 -0.087055534 -0.27833354 -0.038160868 0.22138381 -0.035756886 0.43610457 -0.04259506
-0.14233099 0.022229262 0.06480189 -0.34823993 0.1354596 -0.01258825 -0.36387765 0.26461282
-0.33851472 0.7834361 0.17192726 0.548405 0.37496254 -0.26228383 0.30172876 -0.13249968
-0.001812915 0.19080177 -0.20752169 0.040807556 0.7316549 0.0025554101 -0.23002534 0.27632987
-0.24293429 0.48219666 0.3843123 -0.091968164 0.28350216 0.16564181 -0.056084726 -0.26864892

fc3.bias f4 [10]
00000000: cf2a 10be 9ffb 2c3e 760d ab3d cef5 19be
00000010: 5c3e ad3c 93d1 313e e1ef 9f3d 41c6 87bc
00000020: dd4d ae3c 09a4 0dbe
-0.1407883 0.16892861 0.08352177 -0.15035173 0.0211479 0.17365102 0.07809425 -0.016574027
0.021277362 -0.13832106
